models/bot_alpha_model.pth (torch, 191741 bytes, 8 tensors)

model.0.weight f4 [256, 18]
0.14313214 -0.018642226 0.21025883 0.08959796 -0.21225487 -0.059586626 0.15820034 0.15770347
0.10876944 0.013765526 -0.06826579 0.16333671 -0.10684558 -0.17792478 -0.031244189 -0.19752379
0.054832853 -0.13319442 0.10954578 -0.19624905 -0.20984924 0.038785692 0.1699787 0.084733486
-0.10558915 0.13891008 -0.13760437 -0.13747238 -0.1395603 0.23075102 -0.00095844746 0.120494045
0.15214597 -0.09397876 0.052193984 0.0018805643 -0.03649046 0.065097354 0.18552439 0.004845455
0.1514438 0.15154147 0.03078504 -0.09371096 0.070518 0.18920648 -0.23132633 0.13146271
0.14459078 0.22365262 0.15853256 -0.10411508 -0.016898442 0.18559149 -0.21698165 -0.08049264
-0.11213537 0.17201635 0.21257825 -0.03840879 -0.14088708 -0.1399757 0.23321417 -0.010933454
0.21398851 -0.08143681 0.08714965 0.002217121 -0.056561578 0.23263107 0.14218271 0.0870129
0.013658248 -0.047121808 0.059819557 0.18123387 -0.14133106 -0.21286929 -0.079895705 -0.023139969
0.1304495 0.118741386 0.013615034 -0.18606128 0.20411918 0.041857835 0.19260065 -0.17636773
-0.009552218 0.18638545 0.14398715 -0.069329515 -0.051430956 0.07999422 -0.17023933 -0.20709065
0.018711852 -0.04091113 -0.11492591 -0.13014947 -0.16306135 0.08948717 0.21964608 -0.108418636
0.13188243 -0.07582308 -0.060196713 -0.14713125 -0.11064666 0.06516299 -0.13312706 0.121903576
-0.07402349 0.156864 0.054823186 -0.019222504 -0.11764894 0.21319607 0.1753368 -0.058239415
0.16435012 -0.21327727 0.10950094 0.17965968 -0.12289586 0.0147090815 0.12610795 -0.10268911
-0.17157288 0.15197586 0.18785603 -0.023249915 0.05403625 0.19343583 0.13659276 -0.13985704
0.22813676 -0.0069127856 0.0047972947 0.04092372 -0.084258966 0.19588321 -0.16698311 0.004524183
-0.15926723 0.17450608 0.011228173 -0.12355613 -0.039464906 0.15750486 -0.05396328 0.19400638
0.18061785 -0.20929131 -0.015239402 -0.04721995 0.0011984035 -0.13572004 0.22953792 0.02261066
0.16708674 -0.19755444 -0.10593324 0.17965044 0.12275098 0.10932715 -0.19848007 0.18028593
-0.035448533 0.07777521 0.07348345 -0.11686495 -0.06377698 0.16148303 -0.092038795 -0.22277063
0.15547802 0.21986198 -0.15717144 0.1025507 0.1894618 -0.027453221 0.04723805 -0.13766594
0.13064897 0.19746372 0.14146295 -0.12436951 -0.15737167 -0.20950769 0.0911903 -0.06247964
-0.225527 0.13802646 -0.11728912 0.2163341 -0.03797338 -0.028460924 0.12578471 -0.18421565
0.2156544 0.16479634 -0.21877004 0.13920604 -0.21576115 -0.11716532 -0.12816058 0.18266682
-0.18886764 0.1779112 -0.2316572 0.113550186 0.026343578 -0.13185555 -0.19412774 0.14193465
0.038774397 -0.043569587 -0.22170125 0.1868711 -0.23157443 0.1286919 0.13505188 -0.1943779
-0.11063152 -0.0892026 0.15635422 -0.13478826 -0.12872459 -0.07284271 0.034471486 -0.14837854
0.0610231 0.06021304 0.18250228 -0.10651534 0.11283293 0.040433243 -0.16917197 0.033308767
-0.111790836 -0.07245439 -0.15153986 0.03260643 0.22713889 0.18369125 -0.1265523 -0.025030874
-0.019908682 -0.06346442 0.20810191 -0.19513828 0.23405161 0.18933222 0.05558082 -0.19468208
00000000: 3b91 123e 95b7 98bc 174e 573e 237f b73d
00000010: 5759 59be 1b11 74bd 45ff 213e 057d 213e
00000020: 83c2 de3d cd88 613c efce 8bbd bd41 273e
00000030: dbd1 dabd ea31 36be d0f3 ffbc ad43 4abe
00000040: 6a98 603d 1e64 08be 8a59 e03d 83f5 48be
00000050: b8e2 56be bfdd 1e3d e50e 2e3e c088 ad3d
00000060: 203f d8bd 723e 0e3e 29e8 0cbe 8fc5 0cbe
00000070: e5e8 0ebe ff49 6c3e 5240 7bba 95c5 f63d
00000080: 27cc 1b3e f077 c0bd 5cc9 553d 447d f63a
00000090: 0577 15bd c351 853d 1bfa 3d3e 9fc6 9e3b
000000a0: 1514 1b3e b02d 1b3e e930 fc3c 88eb bfbd
000000b0: be6b 903d 58bf 413e cfe0 6cbe 299e 063e
000000c0: 9b0f 143e 3105 653e 5c56 223e 493a d5bd
000000d0: 9a6e 8abc b20b 3e3e 7030 5ebe 53d9 a4bd
000000e0: 3ba7 e5bd 0e25 303e 1dae 593e 8952 1dbd
000000f0: b444 10be ca55 0fbe b2cf 6e3e 3b22 33bc
00000100: ce1f 5b3e 58c8 a6bd 847b b23d 1e4d 113b
00000110: 1dad 67bd d736 6e3e 5898 113e d233 b23d
00000120: d8c6 5f3c cc02 41bd 5a05 753d 5f95 393e
00000130: 17b9 10be 68fa 59be 5ca0 a3bd 0890 bdbc
00000140: 8e94 053e af2e f33d 9711 5f3c d986 3ebe
00000150: 9e04 513e 1f73 2b3d 1b39 453e be99 34be
00000160: e880 1cbc d4db 3e3e 5e71 133e a2fc 8dbd
00000170: 44a9 52bd 02d4 a33d 3853 2ebe 920f 54be
00000180: 9949 993c 6e92 27bd 475e ebbd e745 05be
00000190: 8ef9 26be 0d45 b73d e7ea 603e 970a debd
000001a0: 300c 073e 2249 9bbd d490 76bd 93a9 16be
000001b0: b79a e2bd 2c74 853d 7652 08be 95a8 f93d
000001c0: a199 97bd f5a0 203e 478e 603d 8378 9dbc
000001d0: edf1 f0bd 1250 5a3e 7d8b 333e 748c 6ebd
000001e0: 664b 283e 5b65 5abe 0742 e03d b5f8 373e
000001f0: d3b0 fbbd 5cfe 703c 7122 013e ab4e d2bd
00000200: cdb0 2fbe 8f9f 1b3e 555d 403e 9b76 bebc
00000210: 1d55 5d3d 0b14 463e f9de 0b3e af36 0fbe
00000220: af9c 693e a684 e2bb a032 9d3b a19f 273d
00000230: f78f acbd 9c95 483e 9ffd 2abe 993f 943b
00000240: f316 23be b9b1 323e 5ff6 373c ff0a fdbd
00000250: f4a5 21bd f448 213e 9a08 5dbd 9ca9 463e
00000260: e3f3 383e 7650 56be afae 79bc b569 41bd
00000270: c013 9d3a 32fa 0abe fd0b 6b3e fe39 b93c
00000280: c918 2b3e b64b 4abe 87f3 d8bd 49f6 373e
00000290: de64 fb3d eae6 df3d 5c3e 4bbe e09c 383e
000002a0: 7b32 11bd 9c48 9f3d 7e7e 963d e456 efbd
000002b0: 819d 82bd cf5b 253e d67e bcbd fc1d 64be
000002c0: a135 1f3e 8023 613e 8df1 20be 1a06 d23d
000002d0: 4602 423e 94e5 e0bc af7c 413d 4df8 0cbe
000002e0: d8c8 053e ee33 4a3e aadb 103e 71b5 febd
000002f0: 0a26 21be 2f89 56be fbc1 ba3d a7ea 7fbd
00000300: 8df0 66be cf56 0d3e 4735 f0bd b086 5d3e
00000310: fa89 1bbd e226 e9bc b5cd 003e 07a3 3cbe
00000320: 82d4 5c3e 5fc0 283e 4105 60be 078c 0e3e
00000330: 7ef0 5cbe 5ff4 efbd 873c 03be 030d 3b3e
00000340: 8566 41be 5b2e 363e 8c37 6dbe 008d e83d
00000350: 7dce d73c 2405 07be 6cc9 46be 5157 113e
00000360: e7d1 1e3d 0676 32bd a705 63be 235b 3f3e
00000370: d921 6dbe cfc7 033e 0a4b 0a3e 000b 47be
00000380: c792 e2bd daaf b6bd 521b 203e ef05 0abe
00000390: 61d0 03be 8f2e 95bd f931 0d3d 8bf0 17be
000003a0: 5cf3 793d f3a1 763d e1e1 3a3e b724 dabd
000003b0: f414 e73d 549d 253d 6b3b 2dbe c66e 083d
000003c0: 98f2 e4bd f862 94bd 442d 1bbe 528e 053d
000003d0: 1997 683e 8f19 3c3e ed96 01be 8c0d cdbc
000003e0: 8817 a3bc a2f9 81bd ab18 553e 54d2 47be
000003f0: 3aab 6f3e 4ee0 413e b7a8 633d bd5a 47be

model.0.bias f4 [256]
0.06566414 0.036569472 -0.1188204 0.117707215 -0.11480243 0.05786074 0.017486952 -0.20187686
-0.15126462 -0.11572446 0.19892348 -0.04051686 0.14722596 0.07835358 0.20707135 -0.16742142
-0.20034263 0.07999019 -0.0755863 -0.11511353 -0.040330347 -0.088026896 -0.015904367 -0.034148555
-0.0026727002 -0.024867933 -0.059631243 -0.1792833 0.17568338 -0.10476032 -0.21675938 -0.17144239
-0.1072267 0.003391248 0.063746266 0.086348414 -0.21427275 -0.21710497 0.20107275 0.008591129
-0.12521423 -0.084101565 0.16209835 0.15648004 -0.1415922 -0.096670486 0.17372862 0.02527094
-0.12516734 -0.17984068 0.06326534 -0.20753936 0.16453566 0.1967742 -0.10041018 0.14245135
-0.20375006 -0.073446 0.14183496 0.0056458795 -0.16838442 -0.135264 -0.083411366 0.21607557
-0.013560945 -0.14937414 -0.099869065 -0.06666603 0.12275292 -0.12327158 0.033579405 0.20929068
0.113689326 -0.07545314 0.13458803 -0.0016628056 -0.19642837 -0.024160456 -0.072681986 0.18300727
-0.018244246 0.03014073 0.10508985 -0.12554276 -0.13644452 0.035243478 -0.16121021 0.028656654
-0.0038325535 0.20778124 -0.20583953 -0.014307899 -0.027288033 -0.17675775 -0.2203911 0.1402358
-0.12474681 -0.2115094 0.0028519086 -0.10435802 0.18893677 -0.14151572 0.0121108685 0.16933118
-0.02677106 0.080565356 -0.19502476 -0.19774133 0.049369667 0.076219514 -0.09541642 0.20122361
-0.07129909 -0.1365019 -0.17237072 -0.06589511 0.08157073 -0.08107211 0.06836688 0.09386727
0.23406455 -0.14476807 0.12794559 0.0217768 0.105399884 -0.048875283 0.157017 0.22226082
0.09384139 0.18891443 -0.10775204 0.023583353 -0.22380328 0.04190071 0.19518688 -0.008021051
0.11675905 0.005324664 0.028599419 -0.17762868 0.024974369 0.0488201 -0.124442056 -0.058147255
0.082247466 0.090980604 -0.21762362 -0.06963306 0.19069806 -0.03427927 -0.21056959 -0.17080724
0.21407545 0.15541591 0.00053461874 -0.0924461 -0.04999917 0.14404672 -0.12063209 -0.13015851
-0.16074383 -0.06296745 0.074200794 -0.22049966 -0.13772556 -0.20124906 0.16772561 -0.10179798
-0.056302458 0.036261883 0.14249344 -0.16823438 0.05519096 0.011810671 -0.06224856 0.012319215
-0.1901838 -0.2163411 0.025547115 0.13680227 -0.040006574 0.2086811 -0.21188606 -0.1747026
-0.17857195 0.182303 -0.09876457 -0.116209626 0.05228252 -0.07068712 0.23035035 -0.06244241
-0.19917986 -0.2226525 0.10215191 0.14964893 0.059456643 -0.15499765 0.21608521 -0.1631654
-0.20316029 0.1599649 0.11351928 0.19588397 -0.010913617 -0.14261816 0.015443617 0.049855787
-0.14899613 0.07637141 0.02561576 -0.18675952 0.0040576174 -0.01785422 -0.19310838 0.14184469
-0.08146963 0.068630494 0.11609973 -0.16390145 0.17505531 0.100906245 -0.059245292 -0.15260576
-0.13549186 -0.21165231 0.15496643 -0.10352019 0.096803136 0.105582714 0.14406757 -0.035497762
0.09148457 0.20281275 -0.10387057 0.108264156 0.22780357 0.13560237 -0.17365117 -0.12530376
0.17262158 -0.18348311 -0.13674961 0.22538303 -0.20955981 0.00281437 -0.10863333 -0.21995328
0.03801241 -0.16907439 -0.15081176 0.1812596 0.14324592 0.17687412 -0.008634316 -0.22172664
00000000: ec7a 863d dfc9 153d 1c58 f3bd 7b10 f13d
00000010: 891d ebbd 62ff 6c3d cc40 8f3c cfb8 4ebe
00000020: 1de5 1abe f200 edbd 99b2 4b3e 02f5 25bd
00000030: 67c2 163e d777 a03d 830a 543e 8570 2bbe
00000040: 9e26 4dbe e6d1 a33d fdcc 9abd a4c0 ebbd
00000050: 6f31 25bd 7247 b4bd e049 82bc 5bdf 0bbd
00000060: 7828 2fbb d6b7 cbbc e43f 74bd 0b96 37be
00000070: 58e6 333e 948c d6bd 2cf6 5dbe 988e 2fbe
00000080: ac99 dbbd b33f 5e3b 678d 823d 70d7 b03d
00000090: 516a 5bbe c450 5ebe 04e6 4d3e cfc1 0c3c
000000a0: 2938 00be 713d acbd 1cfd 253e 4e3c 203e
000000b0: 8cfd 10be 2dfb c5bd eae5 313e 0105 cf3c
000000c0: de2b 00be 2828 38be 4291 813d 3385 54be
000000d0: 097c 283e 2d7f 493e daa3 cdbd c4de 113e
000000e0: dba3 50be db6a 96bd 2f3d 113e 1201 b93b
000000f0: f76c 2cbe a582 0abe 94d3 aabd ea42 5d3e
00000100: ba2e 5ebc 89f5 18be 2788 ccbd 3388 88bd
00000110: e265 fb3d cf75 fcbd 8f8a 093d 4c50 563e
00000120: f3d5 e83d 2d87 9abd 72d1 093e 7ff2 d9ba
00000130: 8524 49be 26ec c5bc 4bda 94bd 4266 3b3e
00000140: f574 95bc b1e9 f63c 5939 d73d 488e 00be
00000150: 1db8 0bbe 775b 103d 4a14 25be 5cc1 ea3c
00000160: 942b 7bbb 9bc4 543e 99c7 52be ae6b 6abc
00000170: 278b dfbc fcff 34be 34ae 61be f999 0f3e
00000180: 417b ffbd ec95 58be 16e7 3a3b a8b9 d5bd
00000190: a478 413e 7fe9 10be aa6c 463c 2765 2d3e
000001a0: fb4e dbbc 73ff a43d 92b4 47be b47c 4abe
000001b0: d937 4a3d fa18 9c3d af69 c3bd 900d 4e3e
000001c0: 4205 92bd 27c7 0bbe f381 30be 04f4 86bd
000001d0: 8e0e a73d 2209 a6bd ef03 8c3d 7c3d c03d
000001e0: 9eae 6f3e 153e 14be 2b04 033e 4265 b23c
000001f0: e5db d73d 7331 48bd 10c9 203e 5798 633e
00000200: ea2f c03d c972 413e 1aad dcbd e031 c13c
00000210: b02c 65be 14a0 2b3d 12df 473e ba6a 03bc
00000220: 5e1f ef3d 857a ae3b 5449 ea3c 4be4 35be
00000230: 0c97 cc3c 96f7 473d 7adb febd d12b 6ebd
00000240: 5c71 a83d 0a54 ba3d bad8 5ebe c79b 8ebd
00000250: 5a46 433e 6b68 0cbd 8e9f 57be 18e8 2ebe
00000260: 9836 5b3e 5925 1f3e a825 0c3a 6254 bdbd
00000270: eecb 4cbd fc80 133e f50d f7bd 4648 05be
00000280: 089a 24be 14f5 80bd 96f6 973d aaca 61be
00000290: ee07 0dbe 3c14 4ebe 43c0 2b3e 767b d0bd
000002a0: 689d 66bd 5787 143d cde9 113e a245 2cbe
000002b0: eb0f 623d 8b81 413c 59f8 7ebd 88d6 493c
000002c0: 8bbf 42be 8588 5dbe 2f48 d13c e515 0c3e
000002d0: efdd 23bd 80b0 553e a9f8 58be 3de5 32be
000002e0: 91db 36be a3ad 3a3e 1445 cabd 50ff edbd
000002f0: 3226 563d 69c4 90bd f6e0 6b3e 9dc3 7fbd
00000300: cef5 4bbe 04ff 63be 0535 d13d 923d 193e
00000310: cf88 733d b4b7 1ebe 7145 5d3e d514 27be
00000320: 4009 50be d7cd 233e cc7c e83d cf95 483e
00000330: 07cf 32bc 7f0a 12be 3907 7d3c 9535 4c3d
00000340: 7192 18be 9d68 9c3d 24d8 d13c e33d 3fbe
00000350: c3f5 843b 0343 92bc 34be 45be bc3f 113e
00000360: 8dd9 a6bd 258e 8c3d b2c5 ed3d c8d5 27be
00000370: b341 333e efa7 ce3d 31ab 72bd af44 1cbe
00000380: 61be 0abe 62bb 58be 85af 1e3e 6502 d4bd
00000390: b940 c63d c03b d83d 7386 133e 1a66 11bd
000003a0: 435c bb3d 25ae 4f3e 18ba d4bd 99b9 dd3d
000003b0: 5745 693e 59db 0a3e 9dd1 31be a14f 00be
000003c0: b6c3 303e ffe2 3bbe 1708 0cbe cfca 663e
000003d0: d996 56be 4b71 383b 277b debd 6f3b 61be
000003e0: e7b2 1b3d d621 2dbe 666e 1abe 1e9c 393e
000003f0: 0faf 123e 7d1e 353e f276 0dbc 4f0c 63be

model.2.weight f4 [128, 256]
0.0048705265 -0.00736586 0.034613155 0.056306623 0.012342475 -0.056628354 -0.04390373 -0.045264736
0.016709045 0.016648449 0.018033653 -0.025150731 0.025089614 -0.041970395 -0.022391863 0.020129867
0.052403495 0.058398277 0.0021539778 -0.0039925054 0.05722323 -0.0014297366 0.014882907 0.037418574
0.03411507 0.019917317 -0.026217625 -0.0013367534 0.017722487 0.00085208565 -0.00017213821 0.04831166
-0.024944738 -0.03666588 0.04979811 -0.03837593 0.0504395 -0.03775061 0.04013166 -0.024547406
-0.0065570697 0.05651059 0.047258772 0.027955815 -0.040003173 0.043489344 -0.05524654 -0.050984085
0.047061957 0.0607031 0.0076735094 0.0326097 -0.027604088 -0.036907703 -0.02074913 0.001115188
0.030463614 -0.04271763 0.025157958 0.037920743 0.03244865 0.03727355 0.056679703 -0.010853678
-0.007502906 0.0022580847 0.028386295 0.0028385893 -0.00041756034 -0.031753182 0.011912353 -0.006027408
-0.020530216 -0.026412055 0.037253417 0.0030552894 0.04120276 0.05036065 -0.044361643 -0.03219352
0.049203835 0.0066872314 0.014975138 0.041800663 0.0018576533 0.004385993 0.04795698 -0.04650092
-0.00746838 -0.008710109 -0.04821808 0.030457318 0.021838292 -0.01794476 -0.020482004 0.003107421
-0.04512377 -0.032577217 0.03961733 0.011363246 0.044564106 -0.044464223 0.00853914 0.020947412
-0.0030636787 0.0049652606 -0.04083281 0.0596357 0.048662096 0.030123271 -0.055461407 -0.04622992
-0.010774545 -0.012290873 -0.05378682 0.01493483 -0.019473046 0.03618478 -0.050028622 0.01615519
-0.03616579 0.044560634 -0.053282462 0.050753184 0.001959674 0.035547733 -0.022126988 0.0482051
0.030786604 -0.037430674 0.049022242 0.039865248 0.018300377 -0.008504868 0.042885132 -0.022403024
0.060053 -0.028798647 0.03054513 0.036247216 0.025615849 -0.032335542 -0.051798925 -0.05045969
0.042842574 -0.045721695 -0.016192764 0.02103535 0.019602567 0.0052767247 0.05683668 0.029945299
-0.00833641 -0.055447295 0.060264066 0.06059584 0.0024467409 -0.053199776 0.038289085 -0.0074355006
-0.002426058 0.05174981 -0.042115867 -0.02877757 0.048761822 -0.051282823 0.057142556 0.04300458
-0.02986715 0.036888726 0.00509388 -0.047243036 0.052447736 0.054246575 -0.048795275 0.05244387
-0.05071105 0.003789954 0.008649111 0.044590734 0.044256024 -0.039187685 -0.031062573 0.02778653
-0.047594525 -0.03881284 -0.061611593 0.02180352 -0.03563775 0.043251038 -0.021579094 0.036434963
0.020791523 0.038771234 -0.056469835 0.059397593 0.058045976 0.007390909 0.03366825 0.044286318
-0.022247769 -0.028721437 0.0029860213 0.053503826 0.0036245212 0.011079356 0.05813943 0.021645159
0.011600532 -0.0084172115 -0.028290607 0.052338555 0.024659753 -0.031003155 0.054682948 -0.0012862161
-0.03551688 -0.054886833 -0.03240543 -0.056705616 -0.0012348443 -0.057636596 -0.040486895 0.047038212
-0.02790197 0.03052897 -0.026464082 0.019684404 0.05723869 0.006744489 0.0013927445 0.04032015
0.012996301 -0.020148046 0.049228147 0.0586244 -0.027924486 0.0023017153 0.0094336495 -0.031786278
-0.053189985 0.007968716 -0.049598366 0.05714629 0.05032918 0.0181984 -0.004023157 -0.055411093
0.041817747 0.035714023 -0.020628594 0.04367391 -0.04062663 0.028526105 -0.019623034 -0.0051287934
00000000: f098 9f3b 505d f1bb 86c6 0d3d c6a1 663d
00000010: 1838 4a3c 22f3 67bd 66d4 33bd 8467 39bd
00000020: 68e1 883c 5462 883c 50bb 933c e808 cebc
00000030: bc88 cd3c 26e9 2bbd 246f b7bc 64e7 a43c
00000040: 0ca5 563d 0833 6f3d c029 0d3b 90d3 82bb
00000050: e862 6a3d 0066 bbba 70d7 733c 3844 193d
00000060: 3ebc 0b3d a429 a33c 58c6 d6bc 0036 afba
00000070: c02e 913c 805e 5f3a 0080 34b9 72e2 453d
00000080: e858 ccbc f62e 16bd 1af9 4b3d 1430 1dbd
00000090: a699 4e3d 62a0 1abd 1861 243d a417 c9bc
000000a0: b0dc d6bb a677 673d 6a92 413d 9803 e53c
000000b0: 5eda 23bd e221 323d 324a 62bd b0d4 50bd
000000c0: 0ac4 403d d0a3 783d 1072 fb3b c091 053d
000000d0: f821 e2bc 882c 17bd 14fa a9bc 802b 923a
000000e0: d48e f93c aef8 2ebd 1018 ce3c c852 1b3d
000000f0: e0e8 043d 26ac 183d fa28 683d a0d3 31bc
00000100: f0da f5bb 60fc 133b 608a e83c a007 3a3b
00000110: 00ec dab9 a00f 02bd 082c 433c 9081 c5bb
00000120: fc2e a8bc 185e d8bc 0a97 183d 403b 483b
00000130: 3ac4 283d f846 4e3d 8eb4 35bd 5add 03bd
00000140: f689 493d 9020 db3b 485a 753c 2c37 2b3d
00000150: 807c f33a 60b8 8f3b 8a6e 443d c077 3ebd
00000160: 50b9 f4bb d8b4 0ebc 5280 45bd a081 f93c
00000170: 38e6 b23c e400 93bc e0c9 a7bc e0a5 4b3b
00000180: b4d3 38bd b06f 05bd c845 223d e82c 3a3c
00000190: da88 363d 1e20 36bd c0e7 0b3c e899 ab3c
000001a0: 00c8 48bb a0b3 a23b 4e40 27bd 9044 743d
000001b0: e851 473d 14c5 f63c 802b 63bd 965b 3dbd
000001c0: b887 30bc a85f 49bc 924f 5cbd 38b1 743c
000001d0: f085 9fbc 7e36 143d d0ea 4cbd e457 843c
000001e0: 9422 14bd 3685 363d b63e 5abd 92e2 4f3d
000001f0: e06d 003b 809a 113d a843 b5bc b672 453d
00000200: 3034 fc3c e850 19bd 8ccb 483d be49 233d
00000210: acea 953c 0058 0bbc 52a8 2f3d 8c86 b7bc
00000220: 22fa 753d 24eb ebbc c839 fa3c f677 143d
00000230: 54d8 d13c 4672 04bd 1c2b 54bd d2ae 4ebd
00000240: b27b 2f3d ac46 3bbd b0a6 84bc 5452 ac3c
00000250: 9095 a03c 60e8 ac3b 94cd 683d d84f f53c
00000260: 7095 08bc b41c 63bd 74d7 763d 5833 783d
00000270: 8059 203b 02e8 59bd 04d5 1c3d 80a5 f3bb
00000280: 80fe 1ebb 9cf7 533d b081 2cbd f0be ebbc
00000290: 7aba 473d f00d 52bd 500e 6a3d 9225 303d
000002a0: f4ab f4bc a218 173d 90ea a63b ea81 41bd
000002b0: 70d3 563d a831 5e3d 8edd 47bd 62cf 563d
000002c0: 64b6 4fbd e060 783b 00b5 0d3c c6a4 363d
000002d0: ce45 353d 4483 20bd f076 febc 94a0 e33c
000002e0: 7af2 42bd 36fa 1ebd 705c 7cbd 4c9d b23c
000002f0: e4f8 11bd 0028 313d a4c6 b0bc d43c 153d
00000300: fc52 aa3c 96ce 1e3d ea4c 67bd e44a 733d
00000310: 9ec1 6d3d 702f f23b b8e7 093d 9265 353d
00000320: f440 b6bc 3849 ebbc 20b1 433b d426 5b3d
00000330: 6089 6d3b 3086 353c 9c23 6e3d 3051 b13c
00000340: 2810 3e3c 58e8 09bc b4c1 e7bc f460 563d
00000350: 4003 ca3c 54fa fdbc 3afb 5f3d 4096 a8ba
00000360: 267a 11bd 04d1 60bd 8ebb 04bd 2644 68bd
00000370: 80da a1ba 5a14 6cbd 96d5 25bd 24ab 403d
00000380: ac92 e4bc e417 fa3c 34cb d8bc 3041 a13c
00000390: 1e73 6a3d e000 dd3b c08c b63a be26 253d
000003a0: 70ee 543c 840d a5bc 74a3 493d 2420 703d
000003b0: e4c1 e4bc 60d8 163b 988f 1a3c 5432 02bd
000003c0: bedd 59bd 388f 023c a827 4bbd 3a12 6a3d
000003d0: f825 4e3d d014 953c b0d4 83bb bef6 62bd
000003e0: 1649 2b3d de48 123d 4cfd a8bc 6ae3 323d
000003f0: 1c68 26bd 94af e93c 7cc0 a0bc 700f a8bb

model.2.bias f4 [128]
-0.04049304 -0.017497383 -0.05895079 0.01930949 0.035203546 -0.020822853 -0.048362277 -0.060058556
-0.016355298 0.022916645 0.044964753 0.048804186 -0.053827427 -0.061720066 0.016043812 -0.0418092
0.049126968 0.016950436 -0.039844856 -0.04526084 -0.04147613 -0.039735273 -0.05162336 0.042520963
-0.041254707 0.0031126887 -0.034670465 0.044804312 -0.021279573 0.022527605 -0.016078234 -0.0032236055
0.031725153 -0.05897969 -0.0048832446 -0.038689665 -0.033205673 0.02729223 -0.02982404 0.020445824
-0.030644938 -0.002985701 -0.047091708 -0.05461154 -0.00087781996 0.052952535 -0.019229934 -0.01469633
-0.04407905 0.005478829 -0.03872732 -0.020112768 -0.026151769 -0.045947716 0.038599588 0.05743988
-0.021291457 0.045288324 0.06080205 -0.05563958 -0.04296019 0.029503413 0.05325131 -0.050997876
-0.053529747 -0.0012989864 -0.057985768 0.021752693 -0.024451151 0.055661954 0.0431744 -0.0144333765
0.007719919 -0.055130072 -0.002992645 0.040289797 -0.040194936 -0.0070878565 -0.0013555586 0.017697461
-0.051369637 0.018087342 -0.011065774 0.014951535 0.062071823 -0.007273473 -0.02643168 -0.061858118
-0.011037566 -0.0062313676 -0.04700242 -0.0026541874 -0.021311611 0.01266823 -0.0044891387 0.03658036
-0.006291449 0.051327646 0.048965722 0.031616293 -0.030351937 -0.05778192 -0.007255867 -0.012088701
0.049803965 -0.059781916 0.03835833 0.015522048 -0.033145882 -0.010104731 -0.008206978 0.031333067
0.022999473 0.019442514 0.012576953 0.028923146 -0.011441596 -0.007383056 -0.055143632 0.040996276
-0.03778687 0.04775867 0.035230428 0.054539837 0.027317993 -0.0011500493 0.02870857 0.046521768
00000000: 08dc 25bd ac56 8fbc 6276 71bd f02e 9e3c
00000010: 9831 103d b094 aabc 8617 46bd f6ff 75bd
00000020: 8cfb 85bc b0bb bb3c f62c 383d e6e6 473d
00000030: 267a 5cbd 2ece 7cbd 506e 833c 2040 2bbd
00000040: 5c39 493d a4db 8a3c 5c34 23bd 6e63 39bd
00000050: e0e2 29bd 74c1 22bd 0473 53bd 762a 2e3d
00000060: b2fa 28bd 40fe 4b3b 9e02 0ebd ba84 373d
00000070: 8052 aebc d08b b83c 80b6 83bc 2043 53bb
00000080: 3cf2 013d b094 71bd a003 a0bb 0e79 1ebd
00000090: ac02 08bd f493 df3c 8c51 f4bc 007e a73c
000000a0: 180b fbbc c0ab 43bb 3ce3 40bd 5ab0 5fbd
000000b0: 801d 66ba c2e4 583d 1888 9dbc e0c8 70bc
000000c0: 3c8c 34bd c087 b33b 8aa0 1ebd 88c3 a4bc
000000d0: 3c3c d6bc ac33 3cbd 9a1a 1e3d 1446 6b3d
000000e0: 6c6b aebc 4080 393d 920b 793d 54e6 63bd
000000f0: 06f7 2fbd 24b1 f13c 0c1e 5a3d 26e3 50bd
00000100: 0242 5bbd c042 aaba 7c82 6dbd b432 b23c
00000110: c84d c8bc cafd 633d a4d7 303d f879 6cbc
00000120: 60f7 fc3b 12d0 61bd 4020 44bb ea06 253d
00000130: 72a3 24bd 4041 e8bb 00ad b1ba 44fa 903c
00000140: f868 52bd e82b 943c 384d 35bc 48f7 743c
00000150: 063f 7e3d 5056 eebb 4087 d8bc f05e 7dbd
00000160: e8d6 34bc 8030 ccbb 9c85 40bd e0f1 2dbb
00000170: b095 aebc 688e 4f3c a019 93bb 4ad5 153d
00000180: 8028 cebb f03c 523d 4890 483d 1680 013d
00000190: a0a4 f8bc bcac 6cbd a0c2 edbb b00f 46bc
000001a0: 3eff 4b3d e2dd 74bd a01d 1d3d 3050 7e3c
000001b0: fac3 07bd 508e 25bc 9076 06bc 1a57 003d
000001c0: 6469 bc3c e845 9f3c 900f 4e3c 3cf0 ec3c
000001d0: 8875 3bbc 90ed f1bb 4ade 61bd b6eb 273d
000001e0: 68c6 1abd 989e 433d c84d 103d 2a65 5f3d
000001f0: fcc9 df3c 40bd 96ba 3c2e eb3c 9c8d 3e3d

model.4.weight f4 [64, 128]
0.055381536 0.048290193 -0.002386365 -0.06689534 -0.008291497 0.01923303 -0.06034808 0.066025145
-0.06455204 0.06149597 0.02763102 -0.02356072 0.049188077 0.046709254 0.056002878 -0.057350565
0.072771676 -0.019069815 -0.038626067 0.059089776 -0.026167018 0.061323527 0.077371806 -0.025634503
0.034717467 -0.058843467 0.02457038 0.08238582 0.07088992 0.07488386 0.0017328887 -0.03668686
-0.08035926 -0.06534109 0.038826447 0.023117188 0.049535424 0.07925302 0.057726674 -0.01487906
-0.0021911198 -0.057401035 -0.071120575 -0.047312364 0.087641105 0.02065088 -0.00013586036 0.058760818
-0.07738292 0.0064612487 0.043475296 -0.0075279013 0.01897275 0.054321703 0.02786108 0.026942024
-0.0073087905 -0.0048594475 -0.08160891 0.042443678 0.024856009 0.0016569612 0.08834745 0.056801666
0.0014812193 0.0066741114 -0.00030699765 -0.06748172 0.024353396 -0.08451818 -0.04343962 -0.055880196
-0.014780552 0.033944964 -0.08763586 -0.08374094 -0.019315857 -0.012235251 -0.023267979 0.054653525
-0.087445624 -0.0090417 0.048000466 -0.0629599 -0.025446137 -0.07496998 -0.030630158 0.03162358
-0.039174683 -0.020024441 -0.028965706 0.023085883 -0.06311308 -0.06526218 0.05794767 -0.027996728
0.0415915 0.016350185 -0.022572387 -0.0201467 -0.030348174 -0.057246715 0.028010996 -0.00079766073
0.013669803 0.039763737 -0.07036544 -0.08323437 0.06389078 -0.018107688 0.041845422 0.056220103
-0.043315347 -0.071805194 0.0056326943 -0.055655703 0.06795456 -0.04343138 0.029523108 0.05802384
0.061919197 -0.01305624 0.064158805 0.047892652 0.027691575 0.05250276 -0.01484943 0.052534886
-0.07585281 -0.07520027 -0.036717102 0.0055491803 0.06690024 -0.0108860675 -0.058024533 -0.010561831
-0.08801729 -0.06822451 -0.052455775 -0.050180774 -0.0650802 -0.053374305 -0.05774681 -0.044718426
-0.08725158 -0.062874995 -0.04722644 -0.061812725 0.03021931 -0.054878008 0.0653699 -0.0019769822
0.08602079 -0.066778615 -0.05235496 0.040198125 -0.08705601 0.0032679613 0.080538504 -0.008410899
0.061664853 -0.03952822 0.0021377725 -0.022447295 0.027351324 0.018745169 -0.020805137 -0.040387027
-0.013343439 0.030378532 -0.051313557 -0.011807482 0.016357834 -0.007081777 0.06259701 -0.037639547
-0.056283616 -0.041412514 0.027192514 -0.036381043 0.031143265 -0.06499588 -0.07439113 -0.032660488
0.012745301 0.01387705 -0.032622114 -0.056227066 -0.0021333785 -0.07868506 -0.018416317 -0.037169125
-0.033076204 -0.07108685 0.041038785 0.060711786 0.06144987 -0.0106098475 -0.082355626 -0.051855836
-0.048006177 0.056201484 -0.058561634 0.06270131 -0.011581321 0.030350441 -0.049851596 0.030344455
0.07586029 -0.085703716 0.032344546 -0.08235692 0.043825693 0.05858161 -0.04861423 0.009994461
0.07555342 0.0061034854 0.016399581 0.034842737 -0.087111294 0.03386258 -0.06254637 0.076122984
0.04126916 -0.011991379 0.007585695 0.035159342 -0.04970852 0.063995816 0.03460959 -0.044690706
0.067641094 0.008397211 -0.038616005 0.07793635 -0.019680776 -0.030879289 -0.042572573 0.043266203
0.08076827 0.06146514 0.044944882 0.043030478 0.07620572 0.055404887 -0.08742215 0.058414068
-0.0087867435 0.08280311 0.0056357607 0.080728345 0.053357087 0.042648774 -0.023076115 0.011710239
00000000: c0d7 623d f0cb 453d 9064 1cbb 6d00 89bd
00000010: 0fd9 07bc 968e 9d3c 8c2f 77bd 3138 873d
00000020: dc33 84bd 33e3 7b3d 735a e23c 6902 c1bc
00000030: 7079 493d 3452 3f3d 4663 653d 6de8 6abd
00000040: 5109 953d 4d38 9cbc 5e36 1ebd 1f08 723d
00000050: 375c d6bc 612e 7b3d 1c75 9e3d 73ff d1bc
00000060: e733 0e3d d905 71bd d247 c93c e6b9 a83d
00000070: bc2e 913d b65c 993d 1922 e33a f644 16bd
00000080: 6593 a4bd 8dd1 85bd 7b08 1f3d 4260 bd3c
00000090: a8e5 4a3d 684f a23d ce72 6c3d 4dc7 73bc
000000a0: e498 0fbb 591d 6bbd aaa7 91bd 9cca 41bd
000000b0: 2e7d b33d 092c a93c bd75 0eb9 2faf 703d
000000c0: f07a 9ebd e2b8 d33b 2713 323d 9dac f6bb
000000d0: be6c 9b3c 6f80 5e3d eb3c e43c 85b5 dc3c
000000e0: 947e efbb 003c 9fbb 9222 a7bd 6cd9 2d3d
000000f0: d49e cb3c 642e d93a 82ef b43d dda8 683d
00000100: 7925 c23a 81b2 da3b 87f4 a0b9 db33 8abd
00000110: c680 c73c de17 adbd beed 31bd a2e2 64bd
00000120: 212a 72bc e009 0b3d 6e7a b3bd 5f80 abbd
00000130: 4a3c 9ebc 5d76 48bc 7d9c bebc 60dc 5f3d
00000140: b116 b3bd a323 14bc 239c 443d 1ff1 80bd
00000150: 6b74 d0bc dc89 99bd 19ec fabc ba87 013d
00000160: a275 20bd 4c0a a4bc 7d49 edbc 9b1e bd3c
00000170: 6e41 81bd 2ea8 85bd 895a 6d3d 6559 e5bc
00000180: d95b 2a3d d3f0 853c bae9 b8bc b10a a5bc
00000190: bc9c f8bc 887b 6abd 5177 e53c 1b1a 51ba
000001a0: 4ff7 5f3c 4ddf 223d c11b 90bd c876 aabd
000001b0: 2bd9 823d 9356 94bc 1b66 2b3d 0d47 663d
000001c0: 6f6b 31bd 9a0e 93bd 7792 b83b 3cf7 63bd
000001d0: c32b 8b3d 1ae5 31bd 72da f13c 68aa 6d3d
000001e0: fc9e 7d3d d7e9 55bc b165 833d 162b 443d
000001f0: 71d9 e23c 220d 573d 064b 73bc d22e 573d
00000200: b858 9bbd 9902 9abd ac64 16bd e6d5 b53b
00000210: fe02 893d 7a5b 32bc 22ab 6dbd 880b 2dbc
00000220: 6942 b4bd 4bb9 8bbd dedb 56bd 5b8a 4dbd
00000230: c548 85bd 049f 5abd eb87 6cbd ab2a 37bd
00000240: f5b0 b2bd 9bc4 80bd 8370 41bd 572f 7dbd
00000250: 7d8e f73c c3c7 60bd a7e0 853d 4290 01bb
00000260: ab2b b03d 3ac3 88bd 2872 56bd caa6 243d
00000270: 6c4a b2bd 4b2b 563b 5ff1 a43d decd 09bc
00000280: 4994 7c3d 58e8 21bd df19 0c3b 64e3 b7bc
00000290: e20f e03c 788f 993c 896f aabc de6c 25bd
000002a0: 719e 5abc 66dc f83c 2a2e 52bd 2b74 41bc
000002b0: dd00 863c 400e e8bb dc32 803d ed2b 1abd
000002c0: a689 66bd 2ba0 29bd d6c2 de3c 4a04 15bd
000002d0: 2920 ff3c 8f1c 85bd 605a 98bd 01c7 05bd
000002e0: abd1 503c 915c 633c c49e 05bd 5a4e 66bd
000002f0: 27d0 0bbb a225 a1bd d1dd 96bc a73e 18bd
00000300: ea7a 07bd fb95 91bd 4918 283d ecac 783d
00000310: dcb2 7b3d edd4 2dbc 11aa a8bd c966 54bd
00000320: 20a2 44bd 8733 663d 53de 6fbd 8b69 803d
00000330: 95bf 3dbc 7da1 f83c 3031 4cbd ef94 f83c
00000340: a45c 9b3d 6e85 afbd b77b 043d bfaa a8bd
00000350: 9282 333d 45f3 6f3d b71f 47bd cfbf 233c
00000360: c0bb 9a3d bfff c73b 6a58 863c 42b7 0e3d
00000370: 6867 b2bd 7db3 0a3d 5018 80bd 5ee6 9b3d
00000380: da09 293d 7d77 44bc 6c91 f83b 3e03 103d
00000390: 299b 4bbd 3d10 833d c9c2 0d3d 9a0d 37bd
000003a0: 6a87 8a3d 7594 093c d12b 1ebd 189d 9f3d
000003b0: 9439 a1bc 90f6 fcbc 9460 2ebd e737 313d
000003c0: d669 a53d dfc2 7b3d 2018 383d ba40 303d
000003d0: bf11 9c3d 3cf0 623d 620a b3bd 9743 6f3d
000003e0: 46f6 0fbc ad94 a93d 30ac b83b e754 a53d
000003f0: f68c 5a3d 7bb0 2e3d 1f0a bdbc 4ddc 3f3c

model.4.bias f4 [64]
-0.024196558 -0.014053993 -0.009310977 0.06477063 0.01475185 0.086512685 -0.079885 0.077283934
0.07699126 0.043126732 -0.07920055 -0.030140834 -0.036143176 -0.011940487 -0.061887387 -0.037783816
-0.049214758 0.00946674 0.01946079 -0.03185108 -0.027356781 0.06810919 0.027028816 0.027951874
-0.024274645 -0.008851197 -0.002728471 0.07255873 -0.008519269 -0.0040994026 0.05448225 -0.086274184
-0.016034199 0.05744472 0.0063080764 -0.016459683 0.078268394 0.0070616202 0.011484574 0.0028463874
-0.041387573 0.05395651 0.015968567 0.053104766 0.025464598 0.019002834 -0.042528447 -0.047163367
-0.03806877 -0.00060993864 -0.061458185 -0.04819786 -0.002741094 0.062345587 -0.01920751 -0.08408592
0.031767987 0.038838364 -0.079938516 0.04859009 0.012676981 -0.07376183 0.080286354 -0.05634399
00000000: dc37 c6bc b842 66bc 118d 18bc 77a6 843d
00000010: beb1 713c 902d b13d bf9a a3bd 0a47 9e3d
00000020: 98ad 9d3d a8a5 303d e633 a2bd e9e9 f6bc
00000030: de0a 14bd 08a2 43bc a17d 7dbd 34c3 1abd
00000040: 6a95 49bd 631a 1b3c 3c6c 9f3c 4776 02bd
00000050: 541b e0bc d57c 8b3d 896b dd3c 54fb e43c
00000060: 9fdb c6bc 9c04 11bc 26d0 32bb ac99 943d
00000070: 6794 0bbc 4854 86bb c828 5f3d 85b0 b0bd
00000080: 275a 83bc 284b 6b3d fbb3 ce3b 75d6 86bc
00000090: 2e4b a03d 2a65 e73b cb29 3c3c 758a 3a3b
000000a0: 0486 29bd 8001 5d3d 83d0 823c 6284 593d
000000b0: 229b d03c d5ab 9b3c 4f32 2ebd 602e 41bd
000000c0: 00ee 1bbd 4ae4 1fba 94bb 7bbd 1f6b 45bd
000000d0: eda3 33bb 165e 7f3d 1159 9dbc 3d35 acbd
000000e0: 261f 023d fa14 1f3d ceb6 a3bd 6706 473d
000000f0: 1db3 4f3c 7110 97bd 2c6d a43d f5c8 66bd

model.6.weight f4 [15, 64]
0.102991626 0.008394867 -0.044860423 0.05201654 0.09801097 0.10434683 -0.05303426 0.045078143
0.10957225 0.09059553 -0.08577396 -0.098620415 -0.012509882 0.106333256 0.11819385 0.057846382
-0.10761207 0.038260534 -0.032628655 0.110265166 0.026848346 -0.08617078 0.045205444 0.112341076
0.01568681 -0.028241128 0.036789462 0.08120173 -0.024665818 -0.046011195 -0.12240361 0.119999945
0.11040732 0.0132917315 -0.010395274 0.1133897 -0.082497984 0.11341195 0.08564566 0.009118244
-0.050921082 -0.057295173 -0.0021170974 0.103703216 -0.03579296 0.102771476 0.01409474 -0.0015731156
0.0049845874 0.032433704 0.090093374 -0.059829533 -0.1014577 -0.037639335 -0.07330322 -0.00458166
-0.098529845 -0.023827404 0.05717373 0.10156196 0.06681356 -0.114530444 0.09019235 -0.07020129
-0.08344975 -0.10747017 -0.01845634 0.0063952655 0.06751242 -0.050692514 -0.07887766 0.021376252
-0.056104198 0.005519539 0.06472406 0.025947675 0.006111935 -0.09918375 -0.115222216 -0.04961881
0.11442341 0.09084974 -0.09560576 -0.012274429 -0.04778692 -0.045114905 0.05235745 0.005873978
0.11533141 -0.07093288 0.05746849 0.037047118 -0.09427875 -0.0057290047 0.07080816 -0.094061136
-0.10277656 -0.016613618 -0.10550222 0.029895887 -0.078348786 -0.012237102 -0.02870822 -0.082420126
0.11681719 -0.010332242 -0.08495496 -0.07430425 -0.006972581 -0.10001512 0.111071065 -0.08550057
-0.0731065 0.08465314 0.09548332 -0.08471845 0.015035182 -0.10695863 0.042068407 0.02380699
0.109108835 -0.057454973 0.058377907 0.11683026 0.09133153 0.004587531 -0.12355724 -0.031852946
0.09742172 0.09586048 -0.052373827 0.09520987 -0.065427005 0.0605731 0.12000351 -0.016862795
-0.07720001 -0.12131959 -0.114369825 0.010024339 -0.017623946 -0.0047501475 0.061902687 -0.12320289
-0.04868436 -0.06552677 -0.10003121 -0.066866055 -0.057974815 0.06217584 -0.029570773 -0.009073481
-0.03500916 0.067325726 0.03596361 0.031625405 -0.091668606 -0.04800974 -0.10396221 0.006493613
-0.029247612 0.10853849 0.008410096 0.07607564 -0.01862675 0.084948495 0.10235217 0.06583573
0.027360037 -0.09899071 0.05103351 0.023886949 0.062722564 -0.07409334 0.099132225 0.12292878
0.025252 0.10822956 -0.041427985 -0.06000118 -0.0034711063 0.02537705 -0.016051948 -0.11623782
-0.029306754 0.08725923 -0.039206192 0.0634844 -0.12274788 0.05141616 -0.07173708 -0.10412623
-0.041972354 0.112703025 -0.11499396 -0.03514038 0.06637874 0.048141345 0.08555509 0.09497027
-0.12223019 -0.04944928 -0.05473639 -0.043517113 0.057059944 -0.07218593 -0.121726155 -0.072569385
0.10051447 -0.027153209 0.096853256 0.09399623 0.09173903 0.11280067 0.010009542 0.018048987
0.097474545 0.093014106 -0.098866194 0.11703335 -0.04433152 -0.06511058 0.100086704 0.074110016
0.07737976 0.10491769 -0.044081718 -0.04842004 0.10613613 0.04149577 0.05302587 0.021348402
-0.118278965 -0.10364783 0.108079284 -0.04482636 -0.09078656 -0.01500158 -0.08176646 0.038800657
0.022391692 -0.08571988 0.073243454 -0.016817197 -0.09119131 0.08179709 0.052691758 -0.018942773
-0.044534937 -0.0741054 0.07694037 0.077334195 -0.10006833 -0.11410923 -0.009363562 -0.04204005
00000000: 46ed d23d a08a 093c 90bf 37bd 4c0f 553d
00000010: fab9 c83d cab3 d53d 743a 59bd dca3 383d
00000020: 6a67 e03d 268a b93d 42aa afbd 80f9 c9bd
00000030: 40f6 4cbc 40c5 d93d 9e0f f23d 54f0 6c3d
00000040: b863 dcbd 14b7 1c3d a0a5 05bd b4d2 e13d
00000050: 10f1 db3c 4e7a b0bd 5829 393d 1413 e63d
00000060: a081 803c f059 e7bc 8cb0 163d 184d a63d
00000070: f80f cabc 3c76 3cbd beae fabd 88c2 f53d
00000080: 3c1d e23d 90c5 593c f050 2abc dc38 e83d
00000090: b4f4 a8bd 8644 e83d fe66 af3d b064 153c
000000a0: a092 50bd 58ae 6abd 00bf 0abb 5a62 d43d
000000b0: a49b 12bd da79 d23d a0ed 663c 0031 ceba
000000c0: c055 a33b 34d9 043d e082 b83d d00f 75bd
000000d0: 0ec9 cfbd b42b 1abd 0020 96bd c021 96bb
000000e0: 04ca c9bd b031 c3bc 002f 6a3d b8ff cf3d
000000f0: 8cd5 883d f08e eabd c4b6 b83d b2c5 8fbd
00000100: b4e7 aabd 5219 dcbd c031 97bc 608f d13b
00000110: f443 8a3d f4a2 4fbd 9c8a a1bd 401d af3c
00000120: 84cd 65bd 40dd b43b 0c8e 843d 3890 d43c
00000130: a046 c83b da20 cbbd a0f9 ebbd 183d 4bbd
00000140: d256 ea3d 6e0f ba3d f4cc c3bd b01a 49bc
00000150: 38bc 43bd 68ca 38bd c474 563d 807a c03b
00000160: e032 ec3d 4245 91bd 1464 6b3d b8be 173d
00000170: 3815 c1bd 60ba bbbb de03 913d 20a3 c0bd
00000180: 847c d2bd 4819 88bc 8c11 d8bd 38e8 f43c
00000190: 5475 a0bd 207e 48bc 802d ebbc e2cb a8bd
000001a0: da3d ef3d 9048 29bc defc adbd d42c 98bd
000001b0: 407a e4bb bad4 ccbd 3a79 e33d ec1a afbd
000001c0: dcb8 95bd a05e ad3d c28c c33d de80 adbd
000001d0: 2056 763c 200d dbbd ec4f 2c3d e006 c33c
000001e0: 7474 df3d e855 6bbd ac1d 6f3d b444 ef3d
000001f0: 060c bb3d 0053 963b 940b fdbd 3c78 02bd
00000200: 0a85 c73d 8052 c43d f085 56bd 64fd c23d
00000210: 98fe 85bd 801b 783d 66c4 f53d d823 8abc
00000220: 0a1b 9ebd 6876 f8bd ba3a eabd 203d 243c
00000230: 1860 90bc 20a7 9bbb ac8d 7d3d cc51 fcbd
00000240: 4069 47bd e632 86bd 2add ccbd 12f1 88bd
00000250: 0077 6dbd 18ac 7e3d 683e f2bc f0a8 14bc
00000260: c465 0fbd 12e2 893d 944e 133d a489 013d
00000270: c0bc bbbd dca5 44bd 24ea d4bd 60c8 d43b
00000280: b098 efbc 6e49 de3d 80ca 093c 8ccd 9b3d
00000290: 2097 98bc 7af9 ad3d 049e d13d e2d4 863d
000002a0: 2822 e03c a4bb cabd 8408 513d 90ae c33c
000002b0: b074 803d 40be 97bd d605 cb3d 16c2 fb3d
000002c0: 48dd ce3c 76a7 dd3d 64b0 29bd ccc3 75bd
000002d0: 807b 63bb 88e3 cf3c 607f 83bc 180e eebd
000002e0: b814 f0bc f8b4 b23d ac96 20bd 1c04 823d
000002f0: 3e63 fbbd c099 523d e4ea 92bd 2240 d5bd
00000300: 34eb 2bbd d8d0 e63d f481 ebbd 5cef 0fbd
00000310: 94f1 873d dc2f 453d 8237 af3d c67f c23d
00000320: d253 fabd 548b 4abd 4433 60bd 003f 32bd
00000330: b0b7 693d 38d6 93bd 904b f9bd 429f 94bd
00000340: 88da cd3d 6870 debc 005b c63d 1881 c03d
00000350: ace1 bb3d 0a04 e73d 10ff 233c 78db 933c
00000360: bca0 c73d 2e7e be3d 5c7a cabd 2eaf ef3d
00000370: f894 35bd b258 85bd 42fa cc3d fec6 973d
00000380: 4879 9e3d 16df d63d 088f 34bd 1854 46bd
00000390: e65d d93d 78f7 293d a831 593d d8e2 ae3c
000003a0: 3e3c f2bd 5045 d4bd ac58 dd3d d89b 37bd
000003b0: 4eee b9bd 30c9 75bc 2c75 a7bd 70ed 1e3d
000003c0: c86e b73c e88d afbd aa00 963d 38c4 89bc
000003d0: 82c2 babd 3c85 a73d 50d3 573d e02d 9bbc
000003e0: 446a 36bd 92c4 97bd ea92 9d3d 6461 9e3d
000003f0: a0f0 ccbd 1ab2 e9bd a069 19bc 3032 2cbd

model.6.bias f4 [15]
0.057669967 -0.020339131 -0.04466033 0.013077185 -0.03416367 0.031345293 0.06068948 0.112300485
0.044424817 -0.08365163 0.018004522 0.08833587 0.0625173 -0.039586633 0.05447875
00000000: 5837 6c3d 409e a6bc c0ed 36bd b041 563c
00000010: 34ef 0bbd ec63 003d 8895 783d ccfd e53d
00000020: ccf6 353d 8c51 abbd 387e 933c 70e9 b43d
00000030: 1209 803d 9825 22bd 1c25 5f3d
