models/bot_beta_model.pth (torch, 191727 bytes, 8 tensors)

model.0.weight f4 [256, 18]
000000 24 80 5f be 3f 14 61 bc 4c 82 30 3e d7 48 01 bc
       -0.21826226 -0.013737737 0.17237204 -0.0078909015
000010 05 90 95 3d 52 d9 0d 3d 01 5b 31 be 83 ce 88 bd
       0.0730286 0.03463108 -0.17319871 -0.06680014
000020 40 b0 e0 bc f0 ef 15 3e f1 26 da bc 9a c4 6a 3d
       -0.027427793 0.1464231 -0.026629897 0.0573164
000030 42 6b 20 3d 46 eb 03 bd 0c 0e 4a be ad be 20 be
       0.03916479 -0.032206796 -0.19731921 -0.15697737
000040 e6 63 2c be 74 29 d0 3c b0 aa d6 bc 13 33 04 3a
       -0.16834983 0.025410391 -0.026204437 0.0005043011
000050 32 fc 19 be 59 8d 73 3d 09 02 a1 bd 5b 74 b8 bc
       -0.15037611 0.05946097 -0.07861716 -0.02251642
000060 2d a4 69 3e 2d 01 30 3e ff 45 54 be 9b 9e 00 3e
       0.22816534 0.17187949 -0.20729826 0.12560503
000070 d8 6b 2b 3d 52 43 03 3e 59 db 90 3d 6d cc 42 be
       0.041850895 0.1281865 0.07073087 -0.19023295
000080 c2 04 6c 3e 7a 46 84 3d 71 11 20 be e1 c6 ef 3d
       0.2304869 0.06458755 -0.15631653 0.11707855
000090 7f 63 5f 3c 28 c9 3b be 54 82 3c bd f3 9e 98 ba
       0.013634562 -0.18338454 -0.046022728 -0.001164405
0000a0 ab b9 40 be 5b b9 b7 bd 65 c9 59 3e 87 40 a9 3d
       -0.18820827 -0.089709006 0.21268232 0.08264261
0000b0 0e 99 25 3c ce d4 44 be ba 36 6d be 09 ff 1c be
       0.010107292 -0.19221804 -0.23165408 -0.15331663
0000c0 2b 15 c9 3d 2d 8c f0 bd 5d 80 db 3a a3 fd 49 be
       0.098184906 -0.117454864 0.0016746629 -0.19725661
0000d0 1d 03 d9 bd c2 b5 a7 3d d8 7d 51 3e a6 53 8c 3d
       -0.10596297 0.081889644 0.20458162 0.06851892
0000e0 f9 e1 24 3e 54 be e4 bd 73 fe 08 3e 4c 3a 31 be
       0.16101827 -0.11169115 0.13378315 -0.17307395
0000f0 a9 a1 bb bd 77 16 53 3e 48 28 e9 bd 19 76 1e be
       -0.091616936 0.20614038 -0.11384636 -0.15474738
000100 eb 43 0b be 6e 12 13 3d 63 fa dd bd 49 db b2 3d
       -0.13600127 0.035906248 -0.10838773 0.087332316
000110 08 78 01 3e 1b 81 98 bd c2 bb 53 be 5b 41 32 be
       0.12643445 -0.074465 -0.20677093 -0.17407744
000120 14 50 ad 3d 0c 91 6d be 84 65 a0 bd 76 b8 db 3d
       0.08462539 -0.23199862 -0.078318626 0.107285425
000130 8c 7a 37 3e 1f 71 42 3e 34 dc 18 3e 75 34 57 be
       0.17917842 0.18988465 0.14927751 -0.21016105
000140 e8 c0 5a be 19 99 04 3e 1f d1 33 3e 67 60 34 be
       -0.2136265 0.12949027 0.17560242 -0.176149
000150 b4 0f d7 bd 71 47 e9 bd c7 dc 04 3c 01 eb 90 bc
       -0.10501042 -0.113905795 0.008109278 -0.017690184
000160 05 81 21 3e 1d 42 91 3d c8 4b 6d 3e a5 6a 13 3e
       0.15771873 0.07092688 0.2317344 0.1439615
000170 f1 21 51 3e 68 17 23 be 26 b8 ef bc 6c fc 83 bd
       0.20423104 -0.15926898 -0.029262614 -0.0644463
000180 60 28 48 3e 20 a7 9f 3d c5 81 31 3e dc 33 15 3e
       0.19546652 0.077955484 0.1733466 0.14570564
000190 d8 3b ef 3d 7d b7 2b 3e 59 bf 2f be ca fb 5e be
       0.11681336 0.16769214 -0.17162837 -0.21775737
0001a0 36 e1 1e be f9 7b 6a 3d ce 7f 97 bd 1b 0d 21 3e
       -0.15515599 0.057247136 -0.07397424 0.15727656
0001b0 6c c6 87 bc 62 87 12 be df a6 ce bd 2d c3 19 be
       -0.016574107 -0.14309457 -0.10090422 -0.1501586
0001c0 ab bd 92 3d 7c f8 ab 3d 77 b5 4c 3e 01 13 66 3e
       0.071650825 0.08397004 0.19991098 0.22468187
0001d0 1c e6 f5 bd 35 f9 89 bd e4 2e 6d be 5b 00 0c 3d
       -0.120067805 -0.067369856 -0.23162419 0.034180027
0001e0 0f 44 46 3e 5a 60 f8 bd 54 89 48 be 8d 96 44 be
       0.193619 -0.121277526 -0.19583637 -0.19198056
0001f0 6b 61 66 3e 7c 96 48 3e d8 cd e6 ba 13 6b 3c be
       0.224981 0.19588655 -0.0017608954 -0.1840022
000200 c3 c2 49 3d 9d 6c 2d bd 67 5c 8e 3c 4d 96 29 be
       0.049258005 -0.04233991 0.017378045 -0.16561241
000210 74 a8 c2 bd 11 fc 2d bd 4a c4 6d be a4 db 97 bd
       -0.09504786 -0.042476717 -0.2321941 -0.0741494
000220 0f 3d 3b be 3c 93 f8 bd 8d 2f 34 bd ad ed 00 be
       -0.18285011 -0.12137458 -0.04399066 -0.12590666
000230 e6 41 49 3e c2 59 27 3e 81 6d db 3a 62 90 0e be
       0.19654045 0.16342834 0.0016741009 -0.13922265
000240 dc e3 3c 3e 75 c5 1c 3e f4 93 86 bd 59 35 2a 3e
       0.18446296 0.15309699 -0.065711886 0.16621913
000250 74 86 3c 3d 6e bf 17 3e db 88 6c 3a 03 d7 65 be
       0.046026662 0.14819118 0.00090230786 -0.22445302
000260 10 be 8a bd 0e 8c 06 3d df fc bf bb 7a fc 56 3d
       -0.06774533 0.03284841 -0.005859002 0.052486874
000270 d6 0f df 3d 03 c0 8d bd 6e aa bd 3b 6c 6b 0c 3c
       0.10891692 -0.06921389 0.005788139 0.008570533
000280 54 79 d0 3d 4f 5c 0b 3e 23 d6 a0 bd 50 e2 7e 3d
       0.101793915 0.13609432 -0.07853343 0.062227547
000290 22 1d 39 be 97 4c 2f 3e 2b 9e 3b be 2c 07 9e bc
       -0.1807752 0.1711906 -0.18322055 -0.01929053
0002a0 17 01 a7 bc 98 9e 1b be e7 8a 08 be 73 f2 d0 3d
       -0.020386262 -0.15197217 -0.13334237 0.102024935
0002b0 77 c7 47 be e8 2c 6e be d9 ca 30 be ec 65 0f bd
       -0.19509684 -0.23259318 -0.1726488 -0.03500931
0002c0 25 87 99 bd 42 26 23 be 88 4b 6e be 83 78 62 bc
       -0.0749648 -0.15932563 -0.23271 -0.013822678
0002d0 b7 08 4d 3d 98 9c 27 be 74 2f 5c be 06 3c ab 3c
       0.05005714 -0.1636833 -0.21502477 0.020902645
0002e0 16 6d ca bc 8e cb ad bd d3 da 8d 3c 64 c5 03 be
       -0.02471022 -0.084860906 0.017316258 -0.12868267
0002f0 52 b4 04 be ac a5 bd 3d e2 39 25 3e d4 6a 78 bc
       -0.12959412 0.09260115 0.16135362 -0.015162189
000300 51 36 58 3c 32 74 24 bc cd 26 98 3d 85 f8 1a be
       0.013196544 -0.010037469 0.07429276 -0.15133865
000310 01 13 4a 3e 3a 61 42 3c 06 41 98 3d 39 93 90 bd
       0.19733812 0.011864001 0.07434277 -0.070593305
000320 dd 28 83 3d 21 be 95 3d 76 3a a4 3d 33 e8 7c 3d
       0.064042784 0.07311655 0.08018963 0.06174488
000330 e7 96 2f 3e 21 2c 24 be 6d 71 88 bb 79 a1 12 3d
       0.17147408 -0.16032459 -0.004163912 0.035798524
000340 9a 8d 37 3d fb fb d7 ba e9 16 32 3e 5f 04 c8 3d
       0.044812776 -0.0016478294 0.17391552 0.09766459
000350 9a ac 58 3e ff 00 6e be 6c 89 42 be 0a 73 12 3e
       0.21159592 -0.23242567 -0.18997735 0.14301696
000360 39 28 b8 3b ed ac 20 3e 8d fc 9e bd 83 f6 a6 3d
       0.0056200293 0.15690966 -0.07763014 0.08152487
000370 19 eb 2e be 36 28 54 be 80 1b 56 bc 8d 3b fd 3b
       -0.1708187 -0.20718464 -0.01306808 0.0077280463
000380 e0 04 bc bc 25 26 86 3d 98 05 40 bd 3b d2 35 3e
       -0.022951543 0.06550244 -0.046880335 0.17755978
000390 59 af 4d 3e 8e 27 bd 3d cf 8f a1 bd 4d 0c bc bc
       0.20086421 0.0923606 -0.078887574 -0.022955084
0003a0 2e 27 24 be 80 81 1e be 2f e6 d3 3d d2 08 5d be
       -0.16030571 -0.15479088 0.103466384 -0.21585396
0003b0 d6 10 25 3e 9c 14 5f be e8 ea 84 3d 35 f0 1e be
       0.16119704 -0.21785206 0.06490117 -0.15521319
0003c0 25 38 9b bd 7d f1 06 3e e7 59 3b be 7b 93 80 bd
       -0.07579068 0.13178058 -0.18296014 -0.0627813
0003d0 dc 37 0e 3e 6f 49 31 3e 64 ee d4 bc 39 30 16 be
       0.13888496 0.17313169 -0.02599258 -0.14666833
0003e0 55 9a 61 be b5 2f 65 3e 4d 93 a7 3d 1a 8b 38 be
       -0.22031529 0.2238148 0.08182392 -0.18021813
0003f0 08 7d 1b 3e 5f 0d 66 be 38 6e 65 3e ad 26 4f be
       0.15184414 -0.22466038 0.22405326 -0.20229597

model.0.bias f4 [256]
000000 46 9e d8 3d 51 bb a4 3d f4 af 47 3e 53 aa 34 3c
       0.10577063 0.0804354 0.19500715 0.011026937
000010 f5 87 ae bb 89 bd 6a 3e 0d 45 0e 3e 22 1d bf 3c
       -0.005326266 0.22923864 0.13893528 0.023329321
000020 64 c2 40 3c 45 85 17 be 24 63 46 3e 3e c6 6a be
       0.011765096 -0.14796932 0.19373757 -0.22927186
000030 31 a3 c1 bc f2 06 31 3b 73 5f 0d 3e 77 d8 67 3e
       -0.023637386 0.0027012196 0.13805942 0.22641169
000040 ee 75 86 bd a1 1a 35 3e ec 2f 51 be 39 5a e2 bc
       -0.06565462 0.1768594 -0.20428437 -0.027630912
000050 20 dd 1d bd 3b 2f 2b be 69 01 25 bd 4c 2f 55 3e
       -0.03854096 -0.16717236 -0.040284548 0.20818824
000060 81 46 1d 3e f2 9c d7 bd f1 bc 18 3e 70 72 60 3e
       0.15358926 -0.10527982 0.14915825 0.21918654
000070 da 5d 72 3d 8b c5 9e 3d 4e 43 a6 3d 79 62 e2 bc
       0.059171535 0.07752522 0.08118306 -0.027634846
000080 10 1f 2b bd 69 3b de bd 24 f4 4c be ea 2c 9f 3d
       -0.04177767 -0.10851175 -0.20015007 0.077722386
000090 6b 5d 0a be 05 db 0f be 62 06 0d 3e 81 50 61 3e
       -0.13512199 -0.14048393 0.13771966 0.22003366
0000a0 3f 88 41 be db 07 f5 bd eb 34 09 be b8 74 3c bd
       -0.1889963 -0.11964389 -0.13399093 -0.04600975
0000b0 80 d6 98 bd b1 38 94 bd 82 c0 18 be 1d 8c 60 be
       -0.07462788 -0.072373755 -0.14917186 -0.21928449
0000c0 87 48 be bd f9 a3 a6 bd dc c1 f1 3d 5d 98 ba 3a
       -0.09291177 -0.08136744 0.11804554 0.0014236082
0000d0 86 76 28 be 83 43 e5 bc b4 93 1b 3d 7b c5 22 3d
       -0.16451463 -0.027986294 0.037982658 0.039739113
0000e0 e6 66 46 3e eb 55 5d be 94 7e b8 3d f4 2c 40 bc
       0.1937519 -0.21614806 0.09008518 -0.011729468
0000f0 9c 54 24 3d ad 0b 70 bd 67 d5 39 be 6a 76 a9 3a
       0.040119752 -0.058604885 -0.18147813 0.0012928967
000100 ea 8b 9d bd 51 54 c0 3c 29 99 64 be 0a 24 c5 3c
       -0.07692702 0.023477705 -0.22324051 0.024065036
000110 29 ce f0 3c 8c f2 51 3e e0 11 d3 bd e0 9d 0d 3e
       0.02939518 0.2050268 -0.10306144 0.13829756
000120 b0 df 0e be 6e 9f 5a 3e bb 77 54 be b1 7d ed 3c
       -0.13952518 0.2134988 -0.20748799 0.028990598
000130 66 a0 6d bb e3 3c 67 3d 54 f6 07 3d ad b8 39 be
       -0.0036258935 0.05645455 0.0331939 -0.18136854
000140 c3 2d 9c bc 1f 59 36 be fe 9a 1a 3e cd 74 66 be
       -0.01906479 -0.17807434 0.15098187 -0.22505493
000150 d8 5a 10 3d c7 61 17 be d5 20 e4 3c 3c 1c 33 be
       0.035242885 -0.14783393 0.027847687 -0.1749124
000160 a9 ba 65 bc 09 10 08 3e 00 a5 1d bd 35 d7 55 bd
       -0.014021554 0.13287367 -0.038487434 -0.05220719
000170 bf ad 80 3a 07 b4 63 3e 35 f4 94 3c cf 56 60 3e
       0.0009817405 0.22236644 0.018182853 0.21908115
000180 c6 de 6f 3e 92 e2 1d 3e fc 72 06 3e 78 10 e5 bd
       0.23424825 0.15418461 0.131298 -0.11184782
000190 fb 61 39 3e c2 db 1a 3e 8f 58 5f 3e c5 6e cb bc
       0.18103783 0.15122893 0.21811126 -0.024833092
0001a0 25 28 59 3e f7 0a 60 3d 20 b7 0f 3e 5e 94 ef bd
       0.2120672 0.054697957 0.140347 -0.11698221
0001b0 d6 e9 10 be c5 88 52 be 77 e5 e9 3d 2b 9d 3c be
       -0.14151701 -0.20559986 0.1142072 -0.1841933
0001c0 ad e2 c5 3d 0d 58 2f bd d9 a7 f9 3c a2 68 5d 3e
       0.096623756 -0.04280858 0.030475544 0.21621946
0001d0 af dd 64 be e1 12 43 be 8d b4 be bd 4e c5 62 be
       -0.2235019 -0.1905017 -0.09311781 -0.22145578
0001e0 f3 88 46 be 0c 2f 48 be c9 bc 58 bd f4 18 48 3e
       -0.1938818 -0.19549197 -0.052914415 0.19540769
0001f0 30 0e e6 3d 65 4e 3c 3e 20 76 5f 3e 5b 1a 9a bd
       0.11233175 0.1838928 0.21822405 -0.07524558
000200 05 ab f4 bd b0 a4 1b be 5b 3e 33 3e 34 c7 38 bc
       -0.11946682 -0.15199542 0.17504255 -0.0112779625
000210 34 01 09 be 54 d0 5a 3e 9a cd 63 3e c0 a1 31 be
       -0.13379365 0.21368533 0.222464 -0.17346859
000220 bd c3 4e be 7e bc af bb bb 29 91 bd 03 d6 ab 3d
       -0.20191856 -0.005363046 -0.070880376 0.08390429
000230 c2 d5 29 bd bd 0e 08 be 76 87 0d 3e 0a 73 08 be
       -0.04146362 -0.13286872 0.13821205 -0.13325134
000240 fc 98 5b 3e f5 d4 39 3e 01 35 e6 bd f1 ea da 3d
       0.21445078 0.18147643 -0.112405784 0.10689343
000250 a4 22 fd bd 11 2f bc 3d 0f c3 c3 3d 1d e0 fc bd
       -0.12360123 0.09188665 0.09558689 -0.12347434
000260 d3 e1 5a bd 8f ab 44 be 29 fc 13 3d 35 36 ac bd
       -0.05343802 -0.1920607 0.03612915 -0.08408777
000270 23 11 f6 3c 6c ea 02 3e 53 26 5b 3c 1a 56 56 bd
       0.030037468 0.12784737 0.013375836 -0.052328207
000280 4b bb ec bc bb 67 87 bd fe 23 6e 3e 14 bb 30 be
       -0.028897902 -0.06611582 0.23255917 -0.17258865
000290 59 ba ac bd 08 c7 7f bd de e4 23 3e 20 a8 b3 3d
       -0.084339805 -0.06244567 0.16005275 0.08772302
0002a0 fc dc b5 3d 0c 34 d8 3d 0a 15 6b 3e 65 03 57 be
       0.0888004 0.10556802 0.22957245 -0.20997389
0002b0 ac 55 02 3e 2d a4 90 bc ea 29 21 bd 4c 8b 4f bc
       0.12727994 -0.01765641 -0.039346613 -0.012667488
0002c0 ea 2e a4 bd b0 ca f9 bd 10 18 0e 3e 05 57 4b 3d
       -0.08016761 -0.12196863 0.13876367 0.049643535
0002d0 77 ec 09 bd c8 f1 66 3e 09 6f a3 3a 12 5b 43 be
       -0.033672776 0.2255317 0.0012469004 -0.1907771
0002e0 62 3f d4 3d 62 e6 b4 bd 88 5e 2d be a9 75 e5 3d
       0.10363652 -0.088330045 -0.16930592 0.112040825
0002f0 f7 f5 6e 3e 0c 86 15 ba 40 32 66 bd 84 f6 35 be
       0.23336016 -0.00057038735 -0.056200266 -0.1776982
000300 8e b5 da bd 54 d5 40 3e 70 71 f6 3d b4 78 4d 3e
       -0.1067916 0.18831378 0.12033355 0.20065576
000310 d6 f3 10 be 67 2f 8a bd 01 f1 eb 3d 6a 26 0f 3e
       -0.14155516 -0.067473225 0.11520577 0.13979498
000320 56 28 52 3d 02 9c 2b 3e 71 ae 16 bc db 43 b6 3c
       0.051308 0.16758731 -0.0091968635 0.022249153
000330 78 d2 93 bb d8 a5 33 3e e5 1e 59 bd c9 d0 cf 3d
       -0.004511174 0.17543733 -0.05300798 0.101472445
000340 99 77 8f bc 03 7b 1c 3d f8 cc dd bc 94 87 3f 3e
       -0.017513083 0.03820325 -0.027075276 0.18704063
000350 97 70 f2 3c 8a 44 5b be f5 4f 28 3e 2b d7 b5 3d
       0.029594703 -0.21412864 0.16436751 0.08878931
000360 3b 95 44 3e 23 dc 65 3e 47 3a 65 be 8d af 2d 3d
       0.19197552 0.22447257 -0.22385512 0.042403746
000370 67 8f 96 3d 8f b5 db 3d 38 13 10 3d 11 79 10 be
       0.073515706 0.10727989 0.03517458 -0.14108683
000380 0b 29 85 3d 5d 42 1f bc e3 66 47 3e 11 b8 9f 3d
       0.06501969 -0.009720412 0.19472842 0.0779878
000390 eb 50 6f 3e 16 ef 37 be 20 e3 55 3e 5b 61 0c be
       0.23370712 -0.17962298 0.20887423 -0.13709013
0003a0 41 fa 5a 3e ba 88 59 3e 50 fe 4b bc 3f 49 36 bd
       0.21384527 0.21243563 -0.01245077 -0.044503447
0003b0 71 e6 5a be 53 00 66 be 77 1a e2 3d c3 40 2c be
       -0.21376969 -0.22461061 0.11040204 -0.1682158
0003c0 45 18 e9 bb 8a 1b e2 3d 6b b1 39 3e 17 91 05 bc
       -0.007113489 0.11040409 0.18134086 -0.008152268
0003d0 43 5d 2c 3e b4 57 5b bc 45 4c f6 bd e4 45 2c be
       0.16832452 -0.013387609 -0.12026266 -0.16823536
0003e0 1c db 21 be 88 fa 2f 3e 33 eb 31 3e 7f 08 67 be
       -0.1580624 0.17185414 0.17374878 -0.22561835
0003f0 82 28 e4 3d 64 aa 54 bc 18 21 61 bd a1 7d 2b 3e
       0.11140539 -0.012980077 -0.0549632 0.16747142

model.2.weight f4 [128, 256]
000000 60 21 79 bb e8 15 ee bc dc 13 38 3d 76 e0 28 bd
       -0.0038014278 -0.02906318 0.044940814 -0.041229688
000010 40 c5 f8 3b 4e fd 78 3d b0 88 70 3c 28 53 10 3c
       0.0075918734 0.060788445 0.014681026 0.0088088885
000020 68 b2 66 bd 86 45 30 3d 70 31 78 3d 00 e8 cd bc
       -0.056322485 0.043035053 0.060594022 -0.02513504
000030 08 de d6 3c 28 1e 56 bd cc cc b0 3c c8 c0 52 3c
       0.02622892 -0.052274853 0.02158203 0.012863345
000040 40 62 00 bc 0e fb 43 3d 42 c5 5b bd 96 39 75 3d
       -0.007835925 0.047846846 -0.053654917 0.05986937
000050 38 f8 06 bc 9c 84 e5 3c 18 e7 cc bc 88 70 25 3c
       -0.008237891 0.028017335 -0.025012538 0.01009763
000060 08 4e 31 3d d0 57 a3 3c 00 8a 0f 3b 2c d8 c6 bc
       0.043287307 0.019939333 0.0021902323 -0.024273
000070 f8 b5 5d bc 00 4d a4 bc c8 12 50 bd b4 a8 df 3c
       -0.013532154 -0.020056248 -0.05079916 0.027302124
000080 f0 d1 11 3d e2 1b 31 3d c8 35 b1 bc a0 c2 18 bc
       0.035600603 0.04323948 -0.02163209 -0.009323746
000090 84 05 2f 3d c8 bc 0f 3d 18 4e 1c 3c 5e 77 1e bd
       0.04272987 0.035092145 0.009540103 -0.038688056
0000a0 24 5e 71 3d ac 74 bb 3c c4 e4 39 bd 8c 38 ae bc
       0.05892767 0.022882782 -0.045384184 -0.021267198
0000b0 20 c2 de bb 80 e7 94 bc 82 92 6f 3d 1a c2 03 bd
       -0.006798044 -0.018176794 0.05848933 -0.03216753
0000c0 2a 92 25 3d b0 7b 12 3c 54 1c 98 3c c8 cf e9 bc
       0.040422596 0.008940622 0.018568195 -0.02854146
0000d0 98 79 14 3d c0 16 41 3c ae 2e 7f bd d0 6d 52 3c
       0.036248773 0.011785209 -0.062300377 0.012843564
0000e0 46 03 48 bd 34 28 c0 3c 28 af 80 bc 46 f3 13 3d
       -0.048831247 0.02345667 -0.015708521 0.036120676
0000f0 70 8d 96 3b f0 54 ad bc 8e 17 2d bd 64 bf 16 bd
       0.0045944974 -0.021158665 -0.04225879 -0.036803618
000100 74 d2 45 3d 6c 85 ee 3c da 27 64 3d 28 61 1c 3d
       0.048296407 0.029116355 0.055702068 0.038178593
000110 90 37 c7 3b 70 b0 ea 3b 54 9f 9a bc a0 b2 a1 3b
       0.0060796216 0.0071621463 -0.018874802 0.004934624
000120 e0 65 15 bd 66 29 05 bd 3a 77 1c 3d ac 7b 6a bd
       -0.03647411 -0.032510184 0.03819964 -0.05724685
000130 0e 90 37 bd 28 b5 da bc 6c e6 cb 3c c0 cb 66 bd
       -0.044815116 -0.02669771 0.024890147 -0.056346655
000140 8a d8 53 3d 8e bc 6d bd aa 5c 3d 3d b8 04 3e 3c
       0.05172018 -0.058041148 0.04623095 0.011597805
000150 60 a6 1b 3d f4 80 e0 bc 84 a9 42 3d d6 e5 38 bd
       0.038000464 -0.02740524 0.047524944 -0.045141064
000160 0e 2a 0e bd d4 a9 12 3d 20 5a 14 bc 20 08 8c 3b
       -0.034708075 0.035806492 -0.009054691 0.0042734295
000170 70 42 c0 3c 3c 25 99 3c b2 4f 6e 3d 8e 3c 24 3d
       0.02346918 0.018694513 0.058181472 0.040096812
000180 c0 87 53 bb 14 4e 6f 3d 40 24 51 bc f0 25 34 3c
       -0.0032276958 0.05842407 -0.01276499 0.010995373
000190 30 c4 20 bd 6c f7 cd 3c d0 44 35 3c 68 1f 2d 3d
       -0.0392496 0.025142394 0.011063769 0.04226628
0001a0 aa 99 2d 3d 50 f0 ad 3b e8 7e 32 bd 28 bb 23 bc
       0.042382874 0.0053081885 -0.04357806 -0.009993352
0001b0 fa be 4c bd e0 40 e5 3c 14 40 34 bd 94 c8 d6 bc
       -0.049986817 0.027985036 -0.044006422 -0.02621869
0001c0 00 5b 25 bb 68 82 0a 3c e4 20 22 bd d4 d6 f4 bc
       -0.0025231242 0.008453943 -0.03958215 -0.029887594
0001d0 50 78 5b bd d4 e8 e9 3c 78 ba 2b bc 78 8f b6 bc
       -0.053581536 0.028553404 -0.010481469 -0.022285208
0001e0 28 35 d8 bc 20 39 52 3c 30 d7 e5 bb b4 00 b1 bc
       -0.026392534 0.0128310025 -0.0070141777 -0.02160678
0001f0 60 53 de 3b da 11 43 3d fa 04 0e 3d 04 ac 9d 3c
       0.0067848414 0.047624446 0.034672715 0.019247063
000200 80 4d 9b bb 90 e2 46 bd 38 a3 f9 bc 00 a6 45 3c
       -0.0047394633 -0.04855591 -0.030473337 0.012063503
000210 ac d2 34 3d d0 9b 8a bc 10 e2 be 3c 10 06 54 bc
       0.044146225 -0.01692 0.023301154 -0.012940899
000220 60 54 03 bc ba 6a 03 3d 80 8a 7e bc e8 5e 82 bc
       -0.008015722 0.032084204 -0.015535951 -0.015914395
000230 56 09 30 bd 9c 7c b8 3c ee 88 47 3d 70 2f 01 3c
       -0.042977653 0.022520356 0.04871457 0.007884845
000240 18 b7 e6 3c a0 6d 59 3c 20 85 df 3b 3c ce 8c 3c
       0.028163478 0.013270766 0.0068212897 0.017188184
000250 f0 7b 1f 3c ba 9d 1b 3d e4 61 d2 3c 26 cf 71 3d
       0.009734139 0.037992217 0.025681444 0.059035443
000260 90 9f 25 bc 78 0a 6a bc 3c 0c 9b bc 08 25 25 3c
       -0.010108843 -0.0142847225 -0.018926732 0.01007963
000270 0a 9d 60 3d 2a 0b 07 3d b0 ce 31 bc ea 3b 28 3d
       0.054837264 0.03296963 -0.010852501 0.041072764
000280 c6 60 67 bd 08 59 02 bd 28 34 7c 3c 08 1a 51 3d
       -0.056488775 -0.031823188 0.015393294 0.051050216
000290 00 9f c3 ba a0 65 09 3b 8c c7 43 bd b8 12 70 3c
       -0.0014924705 0.0020965114 -0.047797725 0.0146529
0002a0 10 6a ca 3b 50 de 35 3d 60 b7 71 bc 2a 15 4d bd
       0.0061771944 0.044401467 -0.014753193 -0.05006901
0002b0 9c 7f af 3c 78 8c 8d bc 42 a8 71 bd 8a 9f 68 bd
       0.021423154 -0.017278895 -0.058998354 -0.056792773
0002c0 10 9e df bb e6 33 73 3d 10 db 98 3b dc 6f 3a bd
       -0.0068242624 0.059375666 0.004664786 -0.045516834
0002d0 9a f8 0a 3d 60 e6 ce 3c ec 98 fe bc 2c d1 74 3d
       0.03392849 0.025256336 -0.031078778 0.059769794
0002e0 b0 f2 01 bc 40 78 ec ba bc d8 94 3c 94 3a a0 3c
       -0.007931396 -0.0018041208 0.018169753 0.019559182
0002f0 80 e7 e2 3b 00 18 65 bc f8 46 20 3d 34 83 45 3d
       0.0069245696 -0.013982773 0.03913018 0.04822083
000300 bc 3d d0 bc 60 4d d1 3c 20 e1 7b 3b 00 c4 fd 3a
       -0.025420062 0.02554959 0.0038433746 0.0019360781
000310 08 00 5b 3c 00 ed 87 bc 78 fb f1 bc da ab 73 bd
       0.013366707 -0.016592503 -0.029538855 -0.059490062
000320 7e f3 75 3d 50 e6 6b 3c 2c eb 0f 3d b8 cc 6f bc
       0.060046665 0.0143981725 0.035136387 -0.014636211
000330 a4 17 a4 bc 46 b9 3f bd 4c 44 69 bd 9c b9 71 3d
       -0.020030804 -0.04680755 -0.0569499 0.0590149
000340 72 46 65 3d 8a 11 5d bd 90 b2 cd 3b c0 28 8d bb
       0.055975385 -0.053971805 0.00627739 -0.0043078363
000350 60 64 15 3c e0 e7 de 3b f0 ba 8b bb 5a 9c 7d bd
       0.00911817 0.006802544 -0.004264228 -0.061916687
000360 80 36 ff 3c a8 df bc 3c 06 aa 4d bd c8 b1 30 bd
       0.031153917 0.023055866 -0.050210975 -0.043138295
000370 58 35 0a 3d 00 eb 14 bc e0 81 3d 3b ac ab 0e 3d
       0.03374228 -0.0090892315 0.0028916523 0.034831688
000380 f0 78 8f bb 2a ef 7b 3d 88 bd d2 3c 92 c1 5f bd
       -0.0043784305 0.06150738 0.025725141 -0.054627962
000390 28 80 0a bd e0 0b 8b bb 9c b8 44 3d 78 57 68 3d
       -0.033813626 -0.004243359 0.04802762 0.05672404
0003a0 24 b6 2f 3d 60 bd ea 3b f0 6d 9a bb d8 27 4d 3c
       0.042898312 0.0071636885 -0.0047128126 0.0125217065
0003b0 28 3a 4a 3d 20 7b 1d bb 98 d1 1b 3c 24 67 90 bc
       0.04937187 -0.0024029687 0.00951042 -0.017627306
0003c0 c0 d5 fc bb 0a 40 55 3d 8e 98 34 bd 38 7c cc bc
       -0.0077159107 0.052063026 -0.0440908 -0.024961576
0003d0 9a b0 46 3d 42 ea 59 bd 4c af 3b 3d 08 24 24 3d
       0.048508264 -0.05320192 0.045821473 0.040073425
0003e0 b2 a2 16 bd 74 0f 70 3d 98 37 ea 3c ce f2 51 bd
       -0.036776252 0.058608487 0.028590962 -0.051256947
0003f0 f2 e8 69 3d 40 12 4a 3b e0 a3 eb 3c cc ac e6 bc
       0.05710692 0.0030833632 0.028764665 -0.028158568

model.2.bias f4 [128]
000000 86 28 71 3d 8c c3 55 bd cc 76 ef bc 42 ad 0c bd
       0.058876537 -0.05218844 -0.029231451 -0.03434492
000010 9c a7 77 bd 1c dc d0 3c b0 cb 2c bc 8a f3 40 3d
       -0.06046258 0.025495581 -0.01054661 0.047107257
000020 28 45 36 bc 04 96 db bc 00 fc 57 3c 50 50 15 3c
       -0.011124887 -0.026804931 0.01318264 0.009113386
000030 8a ef 7b bd 1c 6f 96 3c a4 16 16 bd a0 76 6d 3b
       -0.06150774 0.018363528 -0.036642686 0.0036234036
000040 d8 40 d1 bc ac 21 30 3d a0 0c ed 3c 78 de 1f 3c
       -0.025543615 0.043000862 0.028936684 0.0097576305
000050 c0 a8 b8 bc f4 b0 ab bc be aa 7c 3d 26 06 70 bd
       -0.022541404 -0.020958401 0.06168627 -0.058599614
000060 f2 e1 6c 3d fe 48 60 3d 8c e6 28 bd 60 4c da 3b
       0.057832666 0.05475711 -0.04123549 0.0066619366
000070 c2 5a 49 bd 68 3a 69 bd 98 31 8d bc 8c f2 ea 3c
       -0.04915882 -0.056940466 -0.017235562 0.028680108
000080 14 f6 8b 3c 40 84 89 3a d4 74 72 bd d6 88 64 bd
       0.017085113 0.0010491684 -0.059193447 -0.05579456
000090 c4 d5 70 bd d0 23 b0 3c c6 a5 69 bd 84 36 6b 3d
       -0.058797613 0.021501452 -0.05704286 0.057425037
0000a0 dc 82 01 3d 30 cb 03 3d 08 37 62 bc 60 f3 b4 bb
       0.031618938 0.032176197 -0.013807066 -0.0055221766
0000b0 80 b5 cb bb cc 27 e2 bc d8 3c 2f 3c b2 6e 5e 3d
       -0.006216705 -0.027606867 0.010695659 0.054304786
0000c0 d6 1a 7a bd f0 ec ba 3b 00 a0 40 38 c0 6c 69 3c
       -0.06106075 0.0057045147 4.592538e-05 0.014247119
0000d0 28 1c e5 bc 70 6a 69 bd 08 fb 4e bc 14 92 b9 3c
       -0.027967528 -0.056986272 -0.012633093 0.022652663
0000e0 00 bb 30 ba e0 c8 2d 3c fe 16 40 bd 20 81 81 3b
       -0.00067417324 0.010606974 -0.046896927 0.0039521605
0000f0 f8 62 7f 3d e0 0a d4 bb 64 01 44 bd c8 09 43 3c
       0.062350243 -0.006471023 -0.04785289 0.0119041875
000100 38 b4 31 3c ae 15 4b bd 46 18 4c bd 18 d2 dd 3c
       0.01084619 -0.049581222 -0.049827836 0.02707772
000110 58 c2 7e bd 04 1b ee 3c cc c7 b2 3c 90 bf 55 bd
       -0.06219706 0.029065616 0.021823786 -0.05218464
000120 8e 87 29 3d e8 4b 4c bd e8 8e 35 3c ec 3e 23 bd
       0.04138904 -0.049877077 0.011081435 -0.03985493
000130 b4 87 3f bd 88 0b 3a 3c d8 88 14 3c 0a 1f 38 3d
       -0.046760276 0.011355288 0.009065829 0.044951476
000140 d0 61 1a 3c f4 54 fd 3c 9c ae 53 bd a4 c7 55 bd
       0.009422734 0.030924298 -0.051680192 -0.052192345
000150 00 9a 9d bc 80 97 5b 3d 86 c5 18 3d a0 bd 2e bb
       -0.019238472 0.05361128 0.037297748 -0.0026663318
000160 a0 66 2c 3c a0 c4 4f 3d 38 82 ab 3c e6 5c 00 bd
       0.010522515 0.050724626 0.020936117 -0.031338595
000170 34 71 a6 bc 30 42 24 bd ec 5e 5c bd 0a 57 27 bd
       -0.020317651 -0.040102184 -0.053801462 -0.04085449
000180 f0 6d 23 3c 52 ba 07 bd b6 63 2c bd 18 f4 ec bc
       0.009974942 -0.033136673 -0.04208728 -0.028924987
000190 64 d1 82 bc 10 d0 cf 3b e8 21 e9 3c 50 a3 d2 3c
       -0.015968986 0.0063419417 0.02845855 0.02571264
0001a0 f8 69 7c 3c 5c 62 a5 bc 28 d2 3b 3c d8 ed 37 bd
       0.015406124 -0.020188503 0.011463679 -0.04490456
0001b0 40 28 cd bb 20 bd 32 3b a0 45 0b 3b 3a dc 58 3d
       -0.0062609017 0.0027273372 0.0021251217 0.0529444
0001c0 76 7d 25 3d f8 34 c6 3c e8 a9 17 bc 80 c2 c5 bb
       0.040402852 0.02419518 -0.009256817 -0.006035149
0001d0 44 c8 4a bd 08 40 f8 3c 50 29 6b 3d 24 ed 9d 3c
       -0.049507394 0.03030397 0.057412446 0.019278117
0001e0 b4 0d 47 3d 8a 15 27 3d 58 62 e7 bc 9c 57 22 3d
       0.048597053 0.040792026 -0.028245136 0.039634332
0001f0 70 42 16 bd 50 e7 cc 3b 08 4a 9e 3c 90 61 cb 3c
       -0.036684453 0.0062531605 0.01932241 0.024826795

model.4.weight f4 [64, 128]
000000 65 c0 98 3d 49 8a 74 ba b6 c6 2e bd f0 eb a5 bd
       0.07458571 -0.00093284674 -0.042669974 -0.08101642
000010 a4 1a 41 bd 15 83 30 bd 35 d8 01 3b 89 05 9e 3d
       -0.047144547 -0.04309376 0.0019812707 0.077158995
000020 38 f7 a5 ba 49 65 b2 3d 7f 12 3d 3d 34 85 a3 bd
       -0.0012662178 0.08710725 0.046160217 -0.07984391
000030 1c 2a f1 3c 29 ff 8d 3d 87 6b 9e 3d 90 c1 69 3b
       0.029439025 0.069334336 0.07735353 0.003566835
000040 45 22 95 3d 40 37 16 bd d5 44 a4 3d 4a d2 58 bb
       0.07281927 -0.036673784 0.08020941 -0.0033084326
000050 91 f1 85 bd 6f 4e 52 bd 01 f3 54 bd 7d 7f ae bd
       -0.06540216 -0.05134433 -0.05198956 -0.0852041
000060 11 ff a0 bc ab 4a 56 bd b8 2d 76 3d d4 73 a5 3c
       -0.019652875 -0.052317303 0.060102195 0.020196833
000070 bd 9d c0 ba d0 76 1c bc 5a 7c 6e 3d 05 60 93 bd
       -0.0014695447 -0.0095498115 0.05822406 -0.07196049
000080 91 94 85 3b e4 69 06 bc 6a d5 a1 bd ef a4 26 bd
       0.0040765484 -0.008203957 -0.079020336 -0.040684637
000090 9e 37 37 bd 06 21 48 bc 47 d0 4c 3d f1 53 25 bd
       -0.044730775 -0.012214905 0.050003316 -0.040363256
0000a0 41 19 d3 3c ae 6f 20 bd fb fe 9a bd 63 d3 a5 3d
       0.025768878 -0.039169006 -0.07568165 0.080969594
0000b0 dd b7 49 3d 0d 51 55 bd 90 fe ef bb b1 ef 9b bd
       0.04924761 -0.05207925 -0.0073240474 -0.07614077
0000c0 43 7b a3 bd d8 0d a9 bd f0 c9 b1 bd 6c 20 1f bc
       -0.07982495 -0.082545936 -0.08681095 -0.00971232
0000d0 b0 2e 57 bd 39 a8 f9 3c 5b 01 92 3d 8c 55 ea 3c
       -0.05253476 0.030475723 0.07129165 0.028605245
0000e0 23 20 59 3d 66 5a 0f 3d 29 c7 22 bd e0 42 9d 3d
       0.053009164 0.03499832 -0.039740715 0.07678771
0000f0 73 0d 84 3d bc 81 67 3d 0e e9 07 bd 27 a4 83 bd
       0.06447878 0.05652021 -0.033181243 -0.06427794
000100 a1 34 1d bb 4a e7 07 3d e8 e4 84 3d 78 04 b0 bd
       -0.0023987668 0.03317956 0.06488973 -0.08594602
000110 e3 cc 63 bd 47 d8 00 3d 27 cf 2e 3d 27 76 1a bd
       -0.055615317 0.03145626 0.042678025 -0.037710335
000120 df 25 a6 3d 15 9e db 3c 96 bc 85 bc e3 42 35 3d
       0.08112692 0.026808778 -0.016325276 0.04425324
000130 b3 ca 4e bc f2 dd d2 3b 0e 47 e5 3c 8e 6e 6b 3c
       -0.012621569 0.0064351493 0.027987983 0.01436962
000140 23 ac 3d 3c 7f 4c 68 bd 23 d1 05 bd 8b 33 ad bd
       0.011576685 -0.056713577 -0.03267015 -0.08457097
000150 64 84 05 bd 55 32 96 bd cc 79 29 bd fe 75 c3 3c
       -0.03259696 -0.07333819 -0.04137592 0.023859974
000160 a3 63 3d bd 5b 29 bb 3c a6 71 89 bd e9 83 74 3d
       -0.0462376 0.022846868 -0.0671113 0.05969611
000170 e3 20 83 3d 42 16 0a bd a8 11 fc 3c 49 17 51 bd
       0.06402757 -0.033712633 0.030770138 -0.051047597
000180 d2 16 b0 bd 89 ec 8a bd 8b ff a2 3c 58 9d 2a 3d
       -0.08598103 -0.06783397 0.019897243 0.04165396
000190 60 3b a4 bd 6c ac 44 3d 4a 5d 9e bd d8 3a 6e 3d
       -0.080191374 0.048015997 -0.07732637 0.058161587
0001a0 13 f4 24 3d d5 5e a6 3c 21 33 7b bd 7b 2a 72 3d
       0.04027183 0.020308891 -0.061328057 0.059122544
0001b0 3b c5 65 bd 35 98 56 3d 31 6e 32 3d 8a ab 9c bd
       -0.056096297 0.05239125 0.043562118 -0.07649906
0001c0 96 c9 36 bd 6e 29 87 bc 07 ed 47 bd a5 87 74 3d
       -0.04462584 -0.016499247 -0.04881003 0.059699673
0001d0 78 5f 81 3d 0c d5 46 bd 23 01 44 bc 52 75 a8 3d
       0.06317037 -0.04854302 -0.011963162 0.08225502
0001e0 93 c3 4b bd 2b 7e fe 3b 76 c1 2a bd d8 2c ff 3c
       -0.04974706 0.0077665052 -0.041688405 0.031149313
0001f0 5f 66 7d bd 3c bf 68 3d 6c 1d 92 bd 45 f4 40 bd
       -0.061865207 0.056823 -0.07134518 -0.047107954
000200 e0 bb 47 3d 4c 4c 55 3d 99 13 1a 3d 34 bb 9c bd
       0.048763156 0.052074715 0.037616346 -0.07652894
000210 90 20 69 3c ee e8 17 bc ad c7 73 bd 65 24 d2 bc
       0.014228955 -0.009271843 -0.059516598 -0.02565212
000220 b4 b8 b3 bd c8 68 77 3d b8 3d 74 bd 21 77 80 bd
       -0.08775464 0.06040266 -0.059629172 -0.06272722
000230 e0 d8 c3 3b 71 a2 7b 3d ad 70 89 3d da 3d a9 3d
       0.0059767812 0.061434213 0.06710944 0.082637504
000240 95 10 a1 bd ee 7b 2b bd 80 da 8a bc 0b 5e 35 bc
       -0.07864491 -0.041866235 -0.016949892 -0.011069785
000250 3a 32 a8 bc 41 4c 46 bd 74 64 2f bd c1 28 ab bd
       -0.020531762 -0.048412565 -0.04282041 -0.083573826
000260 e8 2d a2 bc 45 99 4d 3c 80 75 05 bd 01 38 85 bc
       -0.01979728 0.012548749 -0.03258276 -0.016262056
000270 75 b3 d1 3c 89 05 65 bc 48 a4 02 3d c5 9c 26 bd
       0.025598267 -0.01397837 0.031894952 -0.04067685
000280 aa a1 22 3d 73 53 76 3d 0f c0 91 3c 07 b9 14 bd
       0.039704956 0.060138177 0.017791776 -0.03630927
000290 f3 f7 b1 3c ac 61 99 bd 80 51 75 bd e4 d9 9b 3d
       0.021724677 -0.074893326 -0.059892178 0.07609919
0002a0 c4 82 29 bd 1b 87 7e bd 43 c1 93 3b f6 a2 23 3d
       -0.041384473 -0.062140565 0.0045091226 0.039950334
0002b0 95 c7 7e bd bd fb c4 bc 9a 25 a1 bd c8 46 a5 bd
       -0.062202055 -0.02404582 -0.078685 -0.08070141
0002c0 fb ae 10 bd d5 58 67 bc a3 66 a1 3b 15 2d 8a 3d
       -0.035323124 -0.0141203 0.0049255653 0.0674688
0002d0 32 94 83 3d 3c cf 3a 3d 30 3e 51 3d 4e 04 cb 3c
       0.064247504 0.04560779 0.051084697 0.024782326
0002e0 5d c5 9d bd bd 6e 09 3d 4b 03 48 bd 72 7b 80 3c
       -0.0770366 0.033552874 -0.048831265 0.015683863
0002f0 1c 0b 62 bd 05 cc d7 3c ce 25 31 3d b2 e7 99 3d
       -0.055186376 0.026342401 0.043248944 0.075148955
000300 45 af 8c 3c 7c ba 27 bc a4 ca 61 bd 64 49 b4 3c
       0.017173419 -0.010237332 -0.055124894 0.022007652
000310 59 20 5d 3d 42 5d 64 3d dc 09 8e bd 62 ee 31 bd
       0.053985927 0.055753 -0.06935474 -0.04344023
000320 1c 3e 4b 3c c7 9a 87 bd fb 83 b2 3c d4 e3 4b bd
       0.012404945 -0.06621318 0.021791449 -0.04977782
000330 94 8e 9b bd 9e fd 98 3d fc 3c 2d 3c 1d 82 25 3d
       -0.07595554 0.07470249 0.010573622 0.04040729
000340 05 db 6d bd 93 aa 9a 3c 6b 47 5d 3d 6f 18 b4 bd
       -0.0580702 0.018880164 0.054023188 -0.08793723
000350 54 0d 8e 3c e4 99 38 bb 96 a4 73 bd 5f 88 07 bd
       0.01734034 -0.0028167898 -0.059483133 -0.033089038
000360 1c 56 6a bd 5a 74 b4 bd fd 49 82 3d 46 f9 68 3b
       -0.057211027 -0.08811255 0.063617684 0.003554897
000370 3c ae 7d 3d 62 f7 29 bd f9 f1 a4 3d 46 ea 4a 3d
       0.06193374 -0.04149569 0.08053965 0.049539827
000380 48 c6 5e bb 31 95 52 bd 2b 2c f9 3c bc a4 02 3c
       -0.0033992697 -0.05141181 0.030416569 0.007973846
000390 d0 df 1b bd 63 1d 1c 3d 04 69 3b bc 84 29 03 bd
       -0.03805524 0.038113963 -0.011438612 -0.032022014
0003a0 5e 44 24 bd 5e e5 24 bd 5a db a6 bd a1 68 44 3d
       -0.040104263 -0.040257804 -0.08147307 0.047951344
0003b0 f6 54 9b 3d d1 db 38 3d 03 e7 ad bd 1d 72 7c 3d
       0.075845644 0.04513151 -0.084913276 0.061632264
0003c0 b8 87 5f 3d 25 7c 58 3d c3 e0 98 3d 72 3f 8e 3d
       0.05457279 0.05285277 0.07464745 0.06945695
0003d0 32 ac a3 3d 24 52 f7 3c d2 f0 cd 3c 36 0b 88 bd
       0.07991828 0.030190535 0.025139246 -0.06642763
0003e0 66 b4 db bc 89 4e 98 bd 81 89 8e 3d 49 21 bc 3c
       -0.02681942 -0.074368544 0.069598205 0.02296509
0003f0 a9 7b 45 bd ce ca c6 bc e0 d7 9c 3d 19 f4 a7 3d
       -0.048213635 -0.024266627 0.076583624 0.08200855

model.4.bias f4 [64]
000000 19 af 74 bc 1f a0 c5 bc 95 06 2d bb 1d 27 ce 3c
       -0.014934325 -0.024124203 -0.0026401628 0.025165135
000010 81 b7 9b 3d 9e a0 0c bd fb 88 80 bd 5f d2 94 3d
       0.0760336 -0.034332864 -0.06276127 0.072666876
000020 16 73 8f bd 2f e9 b6 3c d3 cb 22 bd 42 51 c0 bc
       -0.07004373 0.022327987 -0.039745163 -0.023476247
000030 3d 0b 4c bd f3 21 81 3b e5 b4 3a 3d e0 0a de bc
       -0.049815405 0.0039408146 0.04558267 -0.027104795
000040 b9 10 79 bd b7 55 24 bc 92 58 f3 3c 95 05 6b 3d
       -0.060806964 -0.010030202 0.02970532 0.05737837
000050 d2 48 8a 3d 9f 17 9c 3d 09 08 d4 3c 5b b2 76 bb
       0.067521706 0.07621693 0.025882738 -0.003764293
000060 fb 30 e5 bb 2f 0a db bc 03 ee ae bd d4 a5 20 bd
       -0.0069943643 -0.026738254 -0.08541491 -0.039220646
000070 4d 35 9d bd bb 8c a0 bd 59 d6 81 bb 15 b5 51 bd
       -0.07676182 -0.07839342 -0.00396232 -0.051198084
000080 c7 00 da bc 52 d1 49 bd f5 bb 7f bd 46 44 ba bc
       -0.026611699 -0.04927189 -0.06243511 -0.022737633
000090 39 01 3c bd 91 5d 2f bd c2 e9 60 bc f8 33 a5 3c
       -0.045899604 -0.04281384 -0.013727607 0.020166382
0000a0 6c 0c a8 3d 57 9e 95 bc 9d fc 4c bd f6 fc 89 bd
       0.08205494 -0.018263979 -0.0500456 -0.067377016
0000b0 49 39 e1 bc 64 af a8 bd db c5 f4 3c 31 3c 4e bd
       -0.027493136 -0.08236578 0.029879501 -0.05035037
0000c0 3e 48 82 bd 6a 0b f2 3b 53 44 52 3b 66 27 07 3c
       -0.06361435 0.0073866146 0.0032084181 0.008249139
0000d0 0f dd ae 3d 14 93 b9 3c 3a 57 70 bd b4 61 2a bd
       0.08538257 0.02265314 -0.058676936 -0.041597083
0000e0 e5 e9 be 3c ff 2d ac bd 60 d8 02 bd 65 4c 9a bd
       0.023304889 -0.084072106 -0.031944633 -0.07534102
0000f0 3a e2 9d 3d 69 19 c2 3c ca 3b a9 3c 3a 90 03 3d
       0.07709165 0.023693757 0.020658392 0.032119967

model.6.weight f4 [15, 64]
000000 c0 90 36 bc 5c 55 77 bd 6e 28 87 bd b2 80 f5 3d
       -0.0111429095 -0.06038414 -0.06599508 0.11987437
000010 c0 4f 1b bb 04 2d 08 bd 70 ab 8c bc 38 98 09 3d
       -0.0023698658 -0.033246055 -0.017171592 0.033592433
000020 1e ef 8a 3d 90 f4 99 3d 80 a3 13 3c ec a0 be 3d
       0.06783889 0.0751735 0.009011149 0.09308037
000030 a8 e2 eb 3d c2 02 d8 bd f8 21 7b 3d b0 f1 8e 3c
       0.115178406 -0.10547401 0.061311692 0.01744923
000040 a6 0b f0 bd 50 69 cf bd 56 35 c4 bd 60 ba 05 3d
       -0.11720972 -0.10127509 -0.095804855 0.032648444
000050 f2 ae ca 3d 00 ec 68 3d dc ba 1a bd 1c af fb 3d
       0.098966494 0.056865692 -0.03777586 0.12289259
000060 38 59 5c 3d 48 d8 f5 bd 8c 0a 0e 3d 20 7a f6 3d
       0.053796023 -0.12004143 0.034678027 0.12035012
000070 82 49 ef bd 20 80 8c 3b 72 70 d2 bd 5c 05 af bd
       -0.116839424 0.0042877346 -0.102753535 -0.08545944
000080 d4 cb 8b 3d d0 b0 ef bd f0 f7 10 3c 08 d9 31 bd
       0.068259865 -0.11703646 0.008848175 -0.043419868
000090 08 fa b5 3d 88 e7 96 3c 7c 48 9d bd c4 af 7c bd
       0.0888558 0.01842095 -0.07679841 -0.06169106
0000a0 f8 cf c6 bd 54 c7 99 3d 2a 57 92 bd a6 d3 90 3d
       -0.09707636 0.07508722 -0.071455315 0.07071619
0000b0 f0 da c4 3d c0 6b 01 3b 70 62 b8 bc 4e 59 d0 bd
       0.096120715 0.0019748062 -0.022507876 -0.101732835
0000c0 ce 0c c6 3d e6 c3 e1 bd a8 4e fd 3d e6 e4 9d 3d
       0.09670411 -0.11023693 0.12368518 0.077096745
0000d0 ac 38 f2 3d 68 ad fd bd f8 21 6c bd 80 9f 97 ba
       0.118272156 -0.1238659 -0.057649583 -0.001156792
0000e0 60 df 2c 3d ba 26 d2 3d e0 6e bf bd b0 23 f0 3c
       0.042205215 0.10261293 -0.093473196 0.029313892
0000f0 7e fc 8b bd 40 e8 df 3c a0 5c 13 bd 48 e8 1b bd
       -0.068352684 0.027332425 -0.035977006 -0.038063318
000100 7e dd 93 3d f8 a1 19 3d 9e b3 d0 3d d4 39 b8 bd
       0.07219981 0.03750798 0.10190509 -0.08995405
000110 28 2f ff bc b2 45 fe 3d c0 73 7e bc 7c 1b 7e bd
       -0.031150416 0.12415637 -0.015530527 -0.06203793
000120 0e e3 c7 bd 14 14 cb 3d 18 01 b9 bc 62 d8 b4 3d
       -0.09760104 0.09915939 -0.02258353 0.08830334
000130 02 40 b1 3d 40 42 6a 3c 46 cd a8 bd fe 5b a2 3d
       0.08654787 0.014298022 -0.08242278 0.07927702
000140 88 72 9e 3c a4 41 20 3d 36 2a f6 3d 20 30 69 3c
       0.019341722 0.0391251 0.1201977 0.014232665
000150 f6 4a bd 3d 5e 20 f8 3d d8 9e 51 3d 6a 76 d6 bd
       0.09242813 0.121155486 0.051176876 -0.104718044
000160 d4 25 e3 3d 90 da d5 bc 7a e9 fd 3d 60 6d 95 3b
       0.110911995 -0.026105195 0.12398048 0.0045601577
000170 b0 32 63 3d 70 d6 fe 3c 0e fe a2 3d d2 b5 e4 bd
       0.05546826 0.031108111 0.07958613 -0.11167492
000180 50 8d d5 3c 06 92 a0 3d bc 1a ec bd be d7 e6 3d
       0.02606836 0.07840352 -0.11528537 0.11271618
000190 80 26 76 bc d0 8c 8f 3c 40 67 b9 bb 00 e1 4f ba
       -0.015023828 0.0175232 -0.0056580603 -0.0007929951
0001a0 4a ad d3 3d d0 56 7e 3c 40 ef 8e 3d 00 78 5d b9
       0.10335787 0.015523627 0.06979227 -0.00021120906
0001b0 38 d0 4f bd 94 95 f6 bd 84 38 7c 3d d0 4b 99 bc
       -0.050735682 -0.120402485 0.061577335 -0.018712908
0001c0 0c 5d 40 3d ac bc 4a 3d a4 0c 54 bd 80 ee 53 3b
       0.046963736 0.049496338 -0.051769868 0.0032338202
0001d0 38 33 a3 bd 76 72 d7 bd c0 6c ff bd dc 20 b9 bd
       -0.079687536 -0.105198786 -0.12471914 -0.090394706
0001e0 f6 db c6 bd 80 95 42 3d 34 b5 b0 3d 60 f8 87 bc
       -0.09709923 0.047505856 0.08628312 -0.016597927
0001f0 5c c6 7e 3d 92 cd 92 bd d0 14 a9 3c 66 b3 b6 bd
       0.06220089 -0.07168116 0.020639807 -0.08920936
000200 7e b5 ec 3d 7e 1b fb bd f0 64 0f 3d 5e e4 f4 bd
       0.115580544 -0.12261103 0.03500837 -0.1195762
000210 e8 46 42 bd 62 b5 a9 3d 6a 35 a2 3d 46 f3 99 bd
       -0.047430903 0.08286549 0.07920344 -0.07517104
000220 4e 80 98 3d ae e7 e2 3d c8 c9 06 3d f6 25 b7 3d
       0.07446347 0.11079346 0.032907277 0.08942787
000230 c6 13 96 bd 50 9b 19 3d f2 6c 82 bd 20 af 8a bb
       -0.0732799 0.037501633 -0.06368436 -0.0042323023
000240 5c 96 dd 3d b4 51 03 bd 56 21 d7 3d 16 02 d6 bd
       0.108196944 -0.03206034 0.10504405 -0.104496166
000250 7c fc 5e 3d 20 9a 5e bc 00 cd 91 bd 80 4c f6 3d
       0.054440007 -0.013586551 -0.07119179 0.1202631
000260 d0 6b d5 3d f8 0e 92 bd 06 98 e8 3d b0 50 a4 3c
       0.10420954 -0.07131761 0.11357121 0.020058006
000270 58 67 b6 bd a4 20 c1 3d 28 fc 70 3d 46 01 c9 3d
       -0.0890643 0.09430054 0.058834225 0.09814696
000280 60 6b 8d 3d 18 22 8c bc 4a b0 87 3d 00 21 3a 3b
       0.06905246 -0.0171061 0.06625421 0.0028401017
000290 b8 10 0f bd 2e b3 f3 3d ca 77 db 3d b0 23 1c 3d
       -0.034928054 0.1189941 0.10716207 0.03811997
0002a0 80 77 5a 3c 4c 28 80 bd 9c 16 ea 3d 00 5f ed ba
       0.013334155 -0.06257686 0.11430094 -0.0018109977
0002b0 44 fd cf bd 68 19 f2 3c 70 d1 39 bc 40 42 0c bd
       -0.101557285 0.02955313 -0.011341438 -0.03424287
0002c0 08 17 98 3d d0 a8 28 bd a8 37 e6 bd a8 5a 83 bd
       0.07426268 -0.041176617 -0.11241084 -0.06413776
0002d0 c0 7f f4 3c ac 41 92 bd 20 31 52 bc b0 3e 25 bd
       0.029846072 -0.07141432 -0.012829095 -0.040342987
0002e0 44 ed c3 3d f8 47 9e 3d 18 e6 b3 3d c4 f9 5e bd
       0.09566739 0.07728571 0.08784121 -0.054437414
0002f0 28 99 2e bd e8 ec ee 3c 60 43 72 bc 4e d0 c4 bd
       -0.04262653 0.0291657 -0.014786571 -0.096100435
000300 80 bd 76 bb 00 b5 0c bc 6c dd 21 bd b2 94 e7 3d
       -0.0037649572 -0.008588076 -0.039517805 0.11307658
000310 88 6d a5 3d 18 27 27 bd 50 fc fe bd 42 9f e5 3d
       0.08077532 -0.040808767 -0.124504685 0.11212017
000320 12 52 ce bd 00 1d 9f 3c 3c e6 e0 bd ca 95 af bd
       -0.100742474 0.019423008 -0.10981414 -0.08573492
000330 10 fe 76 bc fc 25 af 3d d8 86 b5 bd 58 f9 b5 3d
       -0.015075222 0.08552167 -0.0886361 0.08885449
000340 80 46 bb 3d b0 b5 48 3c 98 86 88 3d ce 8c fd bd
       0.09144306 0.012250349 0.06666297 -0.12380372
000350 24 63 49 3d a8 62 b2 bc ee cc cc bd e2 56 9f bd
       0.049166813 -0.021775559 -0.10000025 -0.077802435
000360 5e c0 a7 bd fc aa 86 3d b6 4c a5 bd d8 30 fb bd
       -0.08190988 0.065755814 -0.08071272 -0.122651756
000370 e0 60 27 3d f0 18 8d bc c2 7a 8e 3d 8c 22 37 bd
       0.04086387 -0.017223805 0.06957008 -0.04471068
000380 d4 27 47 3d 10 1e b0 bc c4 ee c8 bd 42 1e cc bd
       0.048621967 -0.02149871 -0.09811166 -0.09966709
000390 32 c5 c7 3d d8 73 dc 3d d6 62 f3 3d c0 2f a4 bc
       0.09754409 0.10764283 0.11884086 -0.0200423
0003a0 72 2a d0 3d 32 64 d7 bd 66 c6 e0 3d bc da 73 bd
       0.10164346 -0.105171576 0.109753415 -0.059534773
0003b0 bc f1 f2 3d 30 69 31 3d 34 2e b3 3d 68 6b 13 3d
       0.118625134 0.043313205 0.08749047 0.035991102
0003c0 86 47 aa 3d 74 a8 64 3d a4 7a 47 3d 38 81 5f 3d
       0.08314423 0.055824712 0.048700944 0.054566592
0003d0 50 92 09 bd d0 de 8a bc 1a fb ac bd 5c ef 99 3d
       -0.0335868 -0.016951948 -0.08446331 0.07516357
0003e0 30 d0 b7 3c de 13 de bd 96 c9 d3 3d 74 87 33 3d
       0.022438139 -0.10843633 0.10341184 0.04383035
0003f0 a0 61 68 bd 20 bc d5 3b 08 7b c4 3c e0 e4 18 3c
       -0.056733727 0.0065226704 0.023984447 0.009331912

model.6.bias f4 [15]
000000 10 e5 98 3c 44 28 d3 bd f4 bf 0a bd 6c 23 b5 3d
       0.018663913 -0.103104144 -0.033874467 0.08844647
000010 00 a5 72 3d 5e 2d f2 3d b0 ce 3a 3d 00 b0 c1 ba
       0.059239388 0.11825059 0.04560727 -0.0014777184
000020 00 a9 fc bc 1c 4a c3 bd c6 8b 9f 3d 66 a0 df 3d
       -0.030842304 -0.095356196 0.077903315 0.109192654
000030 94 9b 67 bd b2 38 a3 bd 4c a8 a1 3d
       -0.056544855 -0.07969798 0.07893428
