models/bot_corinthians_model.pth (torch, 191825 bytes, 8 tensors)

model.0.weight f4 [256, 18]
0	0x3e5fd7f5	0.21859725
1	0xba85aa50	-0.0010197852
2	0xbe04da88	-0.12973988
3	0x3dfd5d89	0.12371356
4	0xbd679ad8	-0.056544155
5	0x3d94d84e	0.07267819
6	0xbda2eab4	-0.07954922
7	0x3c82d95b	0.015972784
8	0xbe0d91d8	-0.13825166
9	0xbe5a2d44	-0.2130633
10	0xbdfa437c	-0.12219903
11	0x3c2c8200	0.010529041
12	0x3e4dd268	0.20099795
13	0x3cbcb310	0.023034602
14	0x3ce0f65f	0.027461229
15	0xbdff1c44	-0.12456563
16	0x3c9dfc36	0.019285303
17	0x3e455344	0.19270045
18	0xbe0df188	-0.13861668
19	0x3d0d0b9d	0.034434903
20	0x3d33dce1	0.04391182
21	0xbe5ac42b	-0.21363895
22	0x3dc850c9	0.097810335
23	0x3dcdfdd8	0.100581825
24	0xbdd9bc23	-0.10631587
25	0xbc963678	-0.01833652
26	0x3dc05cab	0.09392675
27	0xbd4ed391	-0.050494734
28	0x3e4c0796	0.19924769
29	0xbe586c56	-0.21135077
30	0x3db3a225	0.08771161
31	0x3e341956	0.1758779
32	0xbd702914	-0.058632925
33	0xbdaff3e9	-0.08591444
34	0x3d3a6a39	0.045511458
35	0x3da56944	0.080767184
36	0x3e1a2f26	0.15057048
37	0xbe40f5fd	-0.18843837
38	0x3dc13fcc	0.094359964
39	0xbe034fbd	-0.12823386
40	0x3dc64eb0	0.09682977
41	0x3e279bd4	0.16368037
42	0xbe4556be	-0.19271371
43	0xbe4fb877	-0.20285212
44	0xbbe17caa	-0.006881316
45	0xbdde66f9	-0.10859484
46	0xbe22da5c	-0.1590361
47	0xbe4bc370	-0.19898772
48	0x3e5a4905	0.21316917
49	0xbe71349c	-0.23555225
50	0x3e632ce5	0.22185095
51	0x3d9f19b1	0.07768572
52	0x3e59bdfe	0.21263883
53	0xbd30cfe1	-0.043167
54	0x3d88714f	0.06662237
55	0x3df71763	0.120650075
56	0x3de53a16	0.1119272
57	0x3e2597be	0.16171166
58	0x3e318e28	0.17339385
59	0x3e20502d	0.15655585
60	0xbe2fd5a5	-0.17171343
61	0x3de7ca00	0.11317825
62	0x3e1eb389	0.15498175
63	0x3d172d39	0.036908362
64	0x3d5ccd70	0.053906858
65	0xbdd8c987	-0.10585313
66	0xbd0b3379	-0.033984635
67	0xbd35156b	-0.04420988
68	0xbe62e6c1	-0.22158338
69	0xbd56396f	-0.052300867
70	0xbd7f58c8	-0.062340528
71	0x3d4536dd	0.048148025
72	0xbd40da9c	-0.047083482
73	0x3dbc7b59	0.09203214
74	0x3c32f409	0.01092244
75	0x3d033155	0.03202947
76	0xbe43da3f	-0.19126223
77	0xbd0168f4	-0.03159423
78	0x3e2be4a4	0.16786438
79	0x3e46fda5	0.19432695
80	0x3e1063a2	0.14100507
81	0x3ba61344	0.0050682146
82	0x3e5eecc5	0.21770008
83	0xbe3cbbf7	-0.18431078
84	0xbe3c7282	-0.18403056
85	0x3dab4926	0.08363561
86	0x3e07508f	0.13214324
87	0x3b3a1021	0.0028390961
88	0x3e6cf8b2	0.23141745
89	0x3e64546e	0.22297832
90	0x3e525e16	0.20543703
91	0x3dece8c5	0.11567835
92	0x3d57b7f3	0.052665662
93	0x3d03d085	0.03218128
94	0x3bcd33e8	0.006262291
95	0x3af749db	0.0018866615
96	0xbcbefa21	-0.02331263
97	0xbdf4a254	-0.11945024
98	0xbe0f47fb	-0.13992302
99	0x3dca2bfd	0.09871671
100	0x3e187d79	0.14891614
101	0x3e0c305c	0.13690323
102	0x3d8fb364	0.07016638
103	0x3e5d3fec	0.21606416
104	0x3e578c54	0.21049625
105	0x3e30b3e4	0.17256123
106	0x3d2583a3	0.04040874
107	0x3d274471	0.040836755
108	0xbe6fc8f9	-0.23416509
109	0xbdeff29a	-0.117161945
110	0x3e05f958	0.13083398
111	0x3d01ae1b	0.03166018
112	0x3e56daf1	0.20981957
113	0xbd0813cb	-0.033222
114	0x3a95933f	0.0011411681
115	0xbe529db8	-0.20567977
116	0xbe631962	-0.22177652
117	0xbd8b2eb7	-0.067960195
118	0x3dbf6445	0.09345297
119	0xbe2b1663	-0.16707759
120	0xbe2c57d5	-0.1683038
121	0x3e21e681	0.15810587
122	0x3d8f27df	0.06990027
123	0xbe41cbe7	-0.18925439
124	0xbc672c5c	-0.014109697
125	0xbdee35e0	-0.116313696
126	0xbc874dfb	-0.016516676
127	0x3df8c580	0.12147045
128	0x3e37831d	0.1792111
129	0x3e06c690	0.13161683
130	0x3dec25c5	0.115306415
131	0xbe183f72	-0.14867952
132	0xbd34a4c1	-0.044102434
133	0x3df29585	0.11844925
134	0x3e10aab2	0.14127615
135	0xbe01bf6c	-0.12670678
136	0xbe5a02ce	-0.21290132
137	0xbcd5a5e3	-0.026080078
138	0x3c23615e	0.009971945
139	0xbdfb885f	-0.1228187
140	0xbe4a5190	-0.19757676
141	0x3e6d00ac	0.23144788
142	0x3deecb79	0.11659903
143	0xbddd54e9	-0.10807211
144	0x3e3d37f0	0.1847837
145	0xbd8e7649	-0.06956155
146	0xbd042c6a	-0.03226892
147	0xba15fcd7	-0.0005721575
148	0x3e0a09f7	0.13480364
149	0xbc92bb0b	-0.017911455
150	0x3e1e676d	0.15469141
151	0xbd5ab784	-0.05339767
152	0xbdf7e153	-0.12103524
153	0xbdf5c222	-0.119999185
154	0xbc3371aa	-0.010952393
155	0xbdc46033	-0.09588661
156	0x3e6fdbf6	0.23423752
157	0x3dbd61dd	0.092471816
158	0x3e55ab5c	0.2086615
159	0xbdbaaeb2	-0.09115352
160	0x3e449470	0.1919725
161	0x3de6207c	0.11236665
162	0x3e28431c	0.1643185
163	0xbcae029c	-0.021241479
164	0x3d8877a4	0.06663445
165	0x3df9e032	0.12200965
166	0xbe1659e2	-0.14682725
167	0x3e4907dc	0.19631904
168	0xbdd64b9d	-0.10463641
169	0x3e3f70fb	0.18695442
170	0xbe425e02	-0.18981174
171	0x3c24db51	0.010062055
172	0x3e4ebac4	0.20188433
173	0xbd407dd4	-0.046995
174	0xbe0431e7	-0.12909661
175	0x3ddec859	0.10878057
176	0x3dbff0f8	0.09372133
177	0x3d27dc0f	0.04098135
178	0x3e0ed230	0.13947368
179	0x3e1257b6	0.14291272
180	0xbe1a4b29	-0.15067734
181	0xbdd9fa12	-0.106434
182	0xbe179c4e	-0.1480572
183	0x3da5e5dd	0.081004836
184	0xbe56bf6e	-0.20971462
185	0x3cb8afd0	0.022544771
186	0x3e39e29a	0.18152848
187	0x3e38a84c	0.1803295
188	0xb83f0964	-4.5546694e-05
189	0x3e1796e0	0.14803648
190	0xbceea953	-0.029133474
191	0x3e6d3689	0.23165335
192	0x3e5ad027	0.21368466
193	0xbdf3ebe1	-0.11910225
194	0x3d8f40bd	0.0699477
195	0xbdc86f8f	-0.09786903
196	0x3dd20277	0.102543764
197	0x3e01416c	0.12622613
198	0xbe150cab	-0.14555614
199	0xbd07b0f2	-0.033127733
200	0xbc1e5101	-0.0096628675
201	0x3d9992d4	0.07498708
202	0x3e0f0b62	0.13969186
203	0xbe5db0e6	-0.21649513
204	0x3e0a3391	0.13496234
205	0x3cbc6d0f	0.023001222
206	0xbdefe82c	-0.11714205
207	0x3e30f33a	0.17280284
208	0xbe5f2083	-0.21789746
209	0x3e70a99a	0.23502198
210	0x3e5e902b	0.21734683
211	0x3d70fae2	0.05883301
212	0xbd957a8f	-0.07298767
213	0x3dbcdaac	0.09221396
214	0x3e3faae4	0.18717533
215	0x3e01f72c	0.12691945
216	0x3dc86643	0.0978513
217	0x3e24e0ec	0.16101426
218	0x3e66b51e	0.22530028
219	0x3ddf1f4e	0.10894643
220	0xbe627bf9	-0.22117604
221	0xbdf67842	-0.12034656
222	0x3e4baba3	0.19889693
223	0x3e24ab4e	0.16080973
224	0x3da9524f	0.08267652
225	0x3e0ec17f	0.13941
226	0x3dfb48a1	0.12269712
227	0xbe23c32f	-0.15992425
228	0x3e46ff46	0.19433317
229	0x3e05fe39	0.1308526
230	0xbdc3f600	-0.09568405
231	0x3da5e4ca	0.08100279
232	0x3cf5ca9b	0.030003836
233	0x3e53ae7e	0.20672032
234	0xbd3429f4	-0.043985322
235	0xbe0a87c7	-0.13528357
236	0xbe360b7e	-0.17777821
237	0xbe3f878f	-0.18704055
238	0xbe3671e6	-0.17816886
239	0xbe254350	-0.16138959
240	0x3e2f4d6c	0.17119378
241	0x3e62a728	0.22134078
242	0xbc6fd870	-0.014639005
243	0xbe0cda3f	-0.1375513
244	0xbe10a619	-0.14125861
245	0x3d0d9aaf	0.034571346
246	0x3e28f964	0.16501385
247	0x3df0c58e	0.117564306
248	0x3e4d920c	0.20075244
249	0x3e67dea7	0.22643529
250	0xbc4fe4bf	-0.012688815
251	0x3e132938	0.14371192
252	0xbd89b71f	-0.06724381
253	0xbd25a011	-0.040435854
254	0xbe615a4d	-0.22007103
255	0xbca65626	-0.02030475

model.0.bias f4 [256]
0	0xbe1ef241	-0.155221
1	0xbd8d7da2	-0.06908728
2	0xbd92dc9a	-0.07170983
3	0x3e66c8b0	0.22537494
4	0x3dfe62e3	0.12421205
5	0xbdee274b	-0.11628588
6	0xbdda0438	-0.10645336
7	0x3c92f06e	0.017936911
8	0xbdb1181f	-0.08647179
9	0x3e6996b0	0.22811389
10	0x3d3b7088	0.045761615
11	0x3e60f75c	0.2196936
12	0xbe52ee81	-0.20598795
13	0x3d6954d8	0.05696568
14	0x3d7ecb27	0.06220546
15	0x3d113a52	0.03545601
16	0x3e680e4b	0.22661702
17	0x3dce4e0b	0.10073479
18	0xbdf64bdf	-0.1202619
19	0x3de5f202	0.112278
20	0x39e00cbb	0.00042734094
21	0xbde22c4a	-0.11043604
22	0xbe368883	-0.17825513
23	0x3c056d26	0.008143699
24	0x3dc7e241	0.097599514
25	0x3e10d205	0.14142616
26	0x3e0b9180	0.13629723
27	0x3ddac661	0.10682369
28	0x3e4be566	0.19911727
29	0xbda1dc40	-0.079033375
30	0x3e05bce9	0.13060345
31	0x3e34c216	0.17652163
32	0x3e66683a	0.22500697
33	0x3e385262	0.18000177
34	0x3e54ef1d	0.2079434
35	0x3de4eef4	0.11178389
36	0xbe49b107	-0.19696437
37	0xbe1a90c6	-0.15094289
38	0x3adbebd8	0.0016778661
39	0x3e170881	0.14749338
40	0xbddfe299	-0.10931892
41	0x3d1bc3d8	0.038028568
42	0x3c528972	0.012850152
43	0xbd27bb80	-0.0409503
44	0x3d8880b0	0.0666517
45	0x3e1c4641	0.15261175
46	0xbdd20399	-0.102545924
47	0xbd262269	-0.04056016
48	0xbdca3b0b	-0.09874543
49	0x3e396ced	0.18107958
50	0xbe141877	-0.14462458
51	0x3e478c93	0.19487219
52	0x3dde42a1	0.10852552
53	0xbe40f982	-0.1884518
54	0xbd81b1d8	-0.06332749
55	0xbe240d70	-0.16020751
56	0xbe617a34	-0.22019273
57	0x3e47ec4d	0.19523735
58	0x3e063c6b	0.13108985
59	0x3e12509a	0.1428856
60	0x3e40f03a	0.18841639
61	0x3df24378	0.11829275
62	0x3dbe529e	0.09293102
63	0xbe62f167	-0.221624
64	0x3de4974e	0.111616716
65	0x3d3d29d3	0.046182465
66	0x3ce2a3b4	0.02766595
67	0x3dc16000	0.09442139
68	0xbda373c4	-0.07981065
69	0xbdeb460b	-0.11487969
70	0x3d787969	0.06066266
71	0xbc9a8333	-0.018861389
72	0xbe38f5ed	-0.18062563
73	0xbd92165d	-0.07133172
74	0xbd9f555a	-0.077799514
75	0x3e56d89f	0.20981072
76	0xbd2a5363	-0.04158343
77	0xbd7f226c	-0.062288687
78	0xbda10f31	-0.07864226
79	0xbd8b2d9c	-0.06795809
80	0x3cb3f01e	0.021965083
81	0xbc40767e	-0.011747001
82	0xbe639cd5	-0.22227795
83	0xbda2016b	-0.07910427
84	0x3c8a7817	0.016902966
85	0x3e69b306	0.22822198
86	0x3d27896a	0.040902533
87	0x3bdb836d	0.006699017
88	0xbe296c48	-0.16545212
89	0xbe3be797	-0.18350063
90	0xbdb3d399	-0.087805934
91	0x3e252933	0.16128998
92	0xbc415b99	-0.011801624
93	0xbde5980b	-0.112106405
94	0xbe61f375	-0.22065528
95	0x3dc1726a	0.09445651
96	0xbe4f9178	-0.20270336
97	0xbd0bdb2c	-0.034144565
98	0xbe606f29	-0.21917404
99	0xbda2d5d1	-0.079509385
100	0x3ceabb0e	0.028653648
101	0xbdbe5a4b	-0.09294566
102	0xbe551ac5	-0.20810993
103	0x3d3e1ea2	0.046415932
104	0x3e02ff47	0.12792693
105	0x3c464de8	0.012103535
106	0xbda26413	-0.07929244
107	0x3e69e9e4	0.22843128
108	0xbe085ab6	-0.13315853
109	0xbe5416a4	-0.20711762
110	0xbd6c3ab8	-0.057673186
111	0xbe6ce260	-0.2313323
112	0x3d31a5a9	0.043370876
113	0x3e61d4f8	0.22053897
114	0xbe4645cc	-0.19362563
115	0x3e560668	0.20900881
116	0xbe1e19b2	-0.1543949
117	0x3d77c03d	0.060486067
118	0xbc475aba	-0.012167627
119	0x3d552a77	0.05204245
120	0x3dc469c6	0.09590487
121	0x3e0e4fc5	0.13897617
122	0xbe44abf6	-0.19206223
123	0xbc831be2	-0.016004506
124	0x3e692a51	0.22770049
125	0x3e3157b8	0.17318618
126	0x3dcd13d2	0.10013546
127	0x3d78a98e	0.060708575
128	0x3d832d48	0.06405121
129	0x3e361e2c	0.17784947
130	0x3e498a6c	0.1968171
131	0xbe06cd71	-0.13164307
132	0xbdf27d2f	-0.11840283
133	0xbdd472ed	-0.10373483
134	0xbdedf365	-0.116186894
135	0xbe1f1a22	-0.15537313
136	0x3e628ee7	0.22124825
137	0xbe64e813	-0.22354154
138	0x3dac2760	0.08405948
139	0x3e2fcbff	0.17167662
140	0xbe6e6db3	-0.23284034
141	0x3d8b7afe	0.06810568
142	0xbe04ffc8	-0.12988198
143	0xbcc787bf	-0.024356721
144	0x3e44e8ce	0.19229433
145	0xbe62b706	-0.2214013
146	0xbe0bc848	-0.1365062
147	0x3e3d06d3	0.18459634
148	0xbe46e45a	-0.19423047
149	0xbd454d3a	-0.048169352
150	0x3e4c4fb4	0.1995228
151	0x3db4913c	0.08816764
152	0xbc308c07	-0.010775573
153	0xbe383f9a	-0.17993012
154	0x3b94c410	0.004539974
155	0x3e3328b5	0.17495997
156	0x3e4c43e7	0.19947778
157	0xbd531c4a	-0.05154065
158	0xbda594d8	-0.0808503
159	0x3e635817	0.22201572
160	0x3e5c22d6	0.21497664
161	0xbda93e4e	-0.08263837
162	0x3e2d4274	0.16919881
163	0xbe057ec0	-0.13036633
164	0xbe3b9b4c	-0.1832096
165	0xbe1e6e1f	-0.15471695
166	0x3ca6c338	0.02035676
167	0x3e03b017	0.12860142
168	0x3cf76b90	0.030202657
169	0x3df0e43a	0.11762281
170	0xbcdc4e7c	-0.026892893
171	0x3dbe8416	0.09302537
172	0xbe431e62	-0.19054559
173	0xbdfe1fc9	-0.12408406
174	0xbdaf60e8	-0.08563405
175	0x3e5513d1	0.2080834
176	0xbe467d28	-0.19383681
177	0xbe3c31d4	-0.18378383
178	0xbe073bbc	-0.1320638
179	0x3ddeef2a	0.10885461
180	0xbe524140	-0.20532703
181	0xbe565885	-0.20932205
182	0xbdf8b9ab	-0.12144788
183	0x3de86614	0.11347595
184	0xbdd2084c	-0.10255489
185	0x3e19388a	0.14962974
186	0xbb07d692	-0.002072726
187	0xbe3fdbad	-0.18736143
188	0x3e6c0b39	0.23051156
189	0xbe1a7e59	-0.1508726
190	0x3c4b68c2	0.012415113
191	0xbe328f82	-0.17437556
192	0xbd48f039	-0.04905722
193	0xbd81cd7b	-0.063380204
194	0xbe51c687	-0.20485888
195	0xbe5f9369	-0.21833576
196	0x3e472a24	0.19449669
197	0x3df8b845	0.121445216
198	0xbe5b9e4c	-0.21447104
199	0x3db63280	0.08896351
200	0xbdd0390e	-0.10167132
201	0x3e61b2fc	0.22040933
202	0xbe6b3ce7	-0.22972451
203	0xbd588419	-0.052860353
204	0x3e2119ea	0.15732542
205	0xbe05a9ca	-0.1305305
206	0xbe5909ef	-0.21195196
207	0x3d9c4cbe	0.07631825
208	0x3e306dd6	0.17229399
209	0xbe09f995	-0.13474114
210	0x3e2c5ac5	0.16831501
211	0xbe19ba98	-0.15012586
212	0x3e700a23	0.23441367
213	0xbdf56e6a	-0.119839504
214	0x3e3a55c9	0.18196787
215	0xbe6476a7	-0.22310887
216	0x3e52181b	0.20517008
217	0xbd4e2a73	-0.05033345
218	0x3da126a5	0.07868699
219	0xbd239dda	-0.03994546
220	0x3e2809c7	0.1640998
221	0x3ddfe845	0.10932974
222	0xbdd06596	-0.10175626
223	0xbe221ce1	-0.15831329
224	0xbdfe42f2	-0.124151126
225	0xbe18ef66	-0.14935073
226	0x3d31c822	0.043403752
227	0x3df0ad0f	0.11751758
228	0x3e1f167e	0.15535924
229	0xbde6f1f3	-0.11276617
230	0x3d5a7541	0.05333448
231	0xbd7de40c	-0.06198506
232	0xbdd10692	-0.10206331
233	0xbdfa471f	-0.122205965
234	0xbe6c3feb	-0.23071258
235	0x3e23ccb3	0.15996055
236	0xbe1e2ac1	-0.15445997
237	0x3d0f3a76	0.034967862
238	0xbddd6c5c	-0.108116835
239	0x3e70ad03	0.23503499
240	0xbd9a8149	-0.075441904
241	0x3e0f7be8	0.1401211
242	0x3c67f2d2	0.014157014
243	0xbe645fea	-0.22302213
244	0x3c3ad4d2	0.011403279
245	0xbd604d50	-0.05476123
246	0xbe30f7fe	-0.17282102
247	0x3d9a0e07	0.07522207
248	0xbe609f6d	-0.21935816
249	0x3e36e214	0.1785968
250	0x3db3e01b	0.08782979
251	0x3d9732d5	0.07382742
252	0xbd913a8e	-0.070912465
253	0x3e10da74	0.14145833
254	0x3e2ac98a	0.16678444
255	0xbe52f18e	-0.20599958

model.2.weight f4 [128, 256]
0	0x3d4010a4	0.04689087
1	0x3d0e4d56	0.034741722
2	0x3d368fe6	0.044570826
3	0xbc939a70	-0.018017977
4	0x3ca0d394	0.019632138
5	0xbd48814c	-0.048951432
6	0x3ccf63fc	0.025316231
7	0x3c674df0	0.014117703
8	0x3cfb3fe8	0.030670121
9	0xbd56dff4	-0.052459672
10	0x3cdff628	0.027339056
11	0x3d5b41dc	0.053529605
12	0xbce9f8a0	-0.028560936
13	0x3d05b332	0.032641597
14	0xbc0d8eb8	-0.008639984
15	0xbd32e29c	-0.043673143
16	0xbc6c1900	-0.014410257
17	0xbd2e52ec	-0.04255955
18	0x3d310b5c	0.043223724
19	0xba121f80	-0.0005574152
20	0x3cdd9720	0.027049601
21	0xbd3cb656	-0.046072327
22	0xbc812630	-0.01576528
23	0xbc15f2f0	-0.009152159
24	0x3c906de0	0.017630517
25	0xbd4b8e24	-0.049696103
26	0xbd063c58	-0.032772392
27	0x3d756182	0.059907444
28	0xbccbdfc8	-0.02488698
29	0x3caadfd4	0.020858683
30	0xbc869b60	-0.01643151
31	0xbbec7f00	-0.007217288
32	0xba54cc00	-0.00081175566
33	0xbd75d026	-0.06001296
34	0x3b9cd340	0.004785925
35	0x3d60963a	0.054830767
36	0x3cc52974	0.024067618
37	0xbc2c0be0	-0.010500878
38	0x3d12200c	0.035675094
39	0x3cd0b9c0	0.025479198
40	0x3d41a05a	0.047272064
41	0x3b3eb040	0.0029096752
42	0x3cecc0ac	0.028900467
43	0x3d568184	0.05236961
44	0x3ca57ab4	0.020200111
45	0xbcc0c7a8	-0.023532704
46	0x3cb03e38	0.021514043
47	0xbc2a0a48	-0.010378428
48	0xbb716080	-0.00368312
49	0xbd6ca488	-0.057774097
50	0x3c9f69f8	0.01945971
51	0x3cc7f46c	0.024408542
52	0xbbc104c0	-0.005890459
53	0x3d067446	0.03282573
54	0xbd5e8986	-0.05433037
55	0xbd65cf5c	-0.056105956
56	0x3b25f860	0.0025325045
57	0x3d25927c	0.0404229
58	0xbd388662	-0.045050032
59	0xbafea9c0	-0.0019429252
60	0xbd076a50	-0.033060372
61	0x3c828754	0.01593367
62	0xbd7b4cb6	-0.061352454
63	0x3ce54b80	0.027990103
64	0x3d4efaa8	0.050532013
65	0x3d75d54c	0.06001787
66	0x3d2cf99e	0.04223024
67	0x3d1e9146	0.038712762
68	0x3c3d3568	0.011548378
69	0x3cd9fb84	0.02660919
70	0x3b4b3c40	0.0031011254
71	0x3b494540	0.0030711442
72	0xbd3e33be	-0.046436064
73	0x3d7da864	0.061928168
74	0x3d5bd118	0.053666204
75	0xbd1d23cc	-0.038364217
76	0xbcc6c138	-0.024262056
77	0xbd5419d8	-0.05178246
78	0x3ce84c68	0.028356746
79	0xbd60c4d0	-0.054875195
80	0x3d3933d8	0.045215458
81	0x3d5df454	0.054188088
82	0x3d36338a	0.044482745
83	0xbcf799a4	-0.030224629
84	0xbabf4b80	-0.0014594644
85	0xbc7dce50	-0.015491083
86	0x3be64220	0.0070269257
87	0xbd5bd708	-0.053671867
88	0x3b23d5c0	0.002499923
89	0x3c850348	0.016236916
90	0x3d0213b2	0.031757064
91	0x3d27c636	0.040960513
92	0x3d3ee310	0.046603262
93	0x3bf9b880	0.007620871
94	0xbcfc7690	-0.030818254
95	0x3c200fc0	0.00976938
96	0x3d430af0	0.047617853
97	0x3bd35230	0.0064490065
98	0xbcb7f54c	-0.022455834
99	0xbb1c8c20	-0.0023887232
100	0x3d0c29ac	0.03421943
101	0x3c849098	0.016182229
102	0x3cc3d7a8	0.023906544
103	0x3aa6a480	0.001271382
104	0x3c6f6858	0.01461228
105	0x3ab1dd00	0.0013569891
106	0x3c64a6f8	0.013955824
107	0xbd4a50a0	-0.049393296
108	0xbbe87260	-0.0070937127
109	0xbc9d608c	-0.019211076
110	0x3d0d359e	0.03447496
111	0x3d7aa068	0.06118813
112	0x3c0ed3d8	0.0087175
113	0xbd094112	-0.03350932
114	0x3d39dde0	0.045377612
115	0xbc4d1f80	-0.012519717
116	0x3becd250	0.0072272196
117	0xbb363480	-0.0027802289
118	0x3d619f6e	0.055083685
119	0xbd0099a8	-0.031396538
120	0xbd235dd2	-0.039884396
121	0xbbf8f390	-0.0075973943
122	0xbcfafd94	-0.030638494
123	0xbd0c1b68	-0.034205824
124	0x3c5f2ea0	0.013621956
125	0xbd349964	-0.044091597
126	0x3d29f77e	0.041495793
127	0xbd352786	-0.044227146
128	0x3d79b0f4	0.06095977
129	0x3d08a396	0.033359133
130	0x3d10724c	0.035265252
131	0x3d6029d0	0.054727376
132	0x3d2f3bfc	0.042781815
133	0xbd32463e	-0.04352402
134	0xbd491f4e	-0.04910212
135	0xbcd198d0	-0.025585562
136	0x3cb683fc	0.022279732
137	0xbd691dd2	-0.056913204
138	0xbd3e8370	-0.046512067
139	0xbd4dbbe6	-0.050228022
140	0xbd65578e	-0.0559917
141	0xbcb633f4	-0.02224157
142	0xbce672d0	-0.028130919
143	0x3ba2fdb0	0.0049740896
144	0xbd03659e	-0.03207933
145	0xbce7cd88	-0.028296247
146	0xbd06c934	-0.032906726
147	0xbd4235f6	-0.047414742
148	0x3baaf920	0.0052176863
149	0x3cce7324	0.025201388
150	0xbc88a108	-0.016678348
151	0x3d593474	0.05302854
152	0x3c121140	0.0089152455
153	0x3d5c5144	0.05378844
154	0x3d2b9ee0	0.041899562
155	0x3c31a9a8	0.010843672
156	0x3d4d6bae	0.05015152
157	0x3bbf6cf0	0.005841844
158	0x3d7b69be	0.06138014
159	0xbd707f9a	-0.05871544
160	0xbd7c4dac	-0.06159751
161	0x3d5c8f7c	0.053847775
162	0xbd448354	-0.047976807
163	0xba8fb600	-0.0010964274
164	0x3d61f6ee	0.05516713
165	0xbc5cd760	-0.013479084
166	0x3b9985c0	0.0046851337
167	0x3d1067b8	0.035255164
168	0x3c20b5c8	0.009808965
169	0xbad12500	-0.0015956461
170	0xbd17529c	-0.036944017
171	0x3cf3f77c	0.029781096
172	0xbd04e538	-0.032445163
173	0x3d1960ba	0.03744576
174	0x3d59a4ba	0.05313561
175	0x3d43b986	0.04778435
176	0x3ccc197c	0.024914496
177	0x3acb6a80	0.001551941
178	0x3c7623f8	0.015023224
179	0xbd61c89c	-0.055122957
180	0x3d61a632	0.055090137
181	0x3a419f00	0.00073860586
182	0x3d2ec83e	0.042671435
183	0x3d1ca2c6	0.03824117
184	0xbc0b9728	-0.008519925
185	0xbcf7547c	-0.030191652
186	0xbcb6d388	-0.022317663
187	0xbc350668	-0.011048891
188	0xbd48faf0	-0.049067438
189	0xbd3bcdbc	-0.0458505
190	0x3cb34838	0.021885023
191	0x3c5819e8	0.01318977
192	0x3cebe494	0.028795518
193	0x3c7f1528	0.015569009
194	0xbc0470e8	-0.00808356
195	0xbcce086c	-0.0251505
196	0xbc8a48a0	-0.016880333
197	0xbd5b9a20	-0.053613782
198	0x3c25e168	0.010124542
199	0xbd1e8bf0	-0.038707674
200	0xba4c4d00	-0.00077934563
201	0x3d4611c0	0.04835677
202	0xbd08945a	-0.033344604
203	0xbd742d7a	-0.059613682
204	0x3c05c308	0.008164175
205	0xbd4261c6	-0.047456525
206	0x3cb15d44	0.021650918
207	0xbc93be9c	-0.018035226
208	0x3d2c67b4	0.042091087
209	0xbd6ead88	-0.05827096
210	0x3d0f4864	0.034981146
211	0x3b532080	0.0032215416
212	0xbc56b888	-0.013105519
213	0x3d0b495a	0.0340055
214	0xbbf34390	-0.0074238256
215	0xbc6c4ec0	-0.014423072
216	0xbce3204c	-0.027725361
217	0x3d184384	0.037173763
218	0xbc89c0a8	-0.016815498
219	0xbd44cb4a	-0.048045434
220	0xbd0c9a02	-0.03432656
221	0xbc5b1e80	-0.013373971
222	0xbc6f0878	-0.014589421
223	0x3c3b6b90	0.011439219
224	0xbd3836ea	-0.044974245
225	0xbd7fb814	-0.06243141
226	0xbcb14788	-0.021640554
227	0x3d28b220	0.0411855
228	0xbc2f58c8	-0.010702319
229	0xbba95c60	-0.0051684827
230	0xbd3d71a6	-0.04625096
231	0x3cfb629c	0.030686669
232	0x3d68ddc4	0.056852117
233	0xbd5a5e30	-0.05331248
234	0x3d75e83e	0.060035937
235	0x3c81f0b8	0.015861854
236	0xbd37d5ee	-0.044881754
237	0x3c9f35f8	0.019434914
238	0xbb6070c0	-0.0034246892
239	0xbc816e28	-0.015799597
240	0x3d0c3b8a	0.03423647
241	0x3cc54f04	0.02408553
242	0x3c833e2c	0.016020857
243	0x3b873540	0.004126221
244	0x3b5db540	0.0033829957
245	0xbce88748	-0.02838482
246	0xbc04f0f8	-0.008114092
247	0x3d262ef8	0.040572137
248	0x3d1928e4	0.037392512
249	0xbd136d70	-0.03599304
250	0x3ca8a6e0	0.020587385
251	0x3ba00a60	0.0048840493
252	0x3c648d70	0.013949737
253	0x3a7bed00	0.0009610206
254	0x3bc2f160	0.0059491843
255	0x3d701bec	0.05862038

model.2.bias f4 [128]
0	0x3c0b2e60	0.008494943
1	0x3c8d6d10	0.01726392
2	0x3c80d6a4	0.015727349
3	0x3d7ee910	0.062233984
4	0xbd1264f4	-0.035740808
5	0xbd352366	-0.04422321
6	0x3cd22614	0.025652923
7	0xbcee2b38	-0.029073343
8	0xbd7e7190	-0.06212002
9	0xbd15d708	-0.036582023
10	0x3cad15f4	0.021128632
11	0xbc042e70	-0.008067712
12	0xbc2c61f8	-0.010521404
13	0x3d1949ac	0.037423775
14	0x3c8a88ec	0.016910993
15	0x3d2bef3a	0.04197619
16	0x3d4ae4d2	0.049534626
17	0xbccf9cfc	-0.02534341
18	0x3cbe4848	0.023227826
19	0x3d0381ca	0.0321062
20	0x3cd36ef0	0.025809735
21	0x3d04ce5e	0.03242337
22	0x3cdd4638	0.027011022
23	0x3ce69284	0.028146036
24	0x3d6085c0	0.054815054
25	0x3c18bbe8	0.009322144
26	0xbd587aa4	-0.052851334
27	0x3bebed80	0.007199943
28	0x3d1e85b6	0.038701735
29	0x3cf0fc68	0.029417232
30	0x3c1ca580	0.009560943
31	0x3a2aa580	0.0006509647
32	0x3d63ed8a	0.055646457
33	0xbd61cf1a	-0.055129148
34	0xbd15d4b0	-0.036579788
35	0x3cc07a5c	0.023495845
36	0x3c81f394	0.015863217
37	0xbd4ea0e2	-0.0504464
38	0xbd1207f2	-0.03565211
39	0xbcfb1ca4	-0.030653305
40	0x3c2c7918	0.010526918
41	0xbd5b292e	-0.05350607
42	0xbb020d00	-0.0019844174
43	0xbc1c0580	-0.009522796
44	0x3d42426c	0.047426626
45	0xbc990ed0	-0.018683821
46	0x3ccfadbc	0.025351398
47	0xbd6e9570	-0.058247983
48	0xbd7064fe	-0.058690064
49	0x37855000	1.5892088e-05
50	0xbcc1d32c	-0.023660265
51	0x3d2909c8	0.041269094
52	0x3d2b206c	0.041778967
53	0xbd2996b6	-0.041403495
54	0xbd4a6e9c	-0.04942189
55	0xbd1226ec	-0.03568165
56	0x3cb4bfe8	0.022064164
57	0xbd1c5d76	-0.03817507
58	0xbc1ed120	-0.009693414
59	0x3d72acb6	0.05924674
60	0xbc1acaf0	-0.009447798
61	0xbd7728aa	-0.060341515
62	0x3ced9764	0.029002853
63	0x3d3c86ac	0.04602687
64	0xbc521198	-0.0128215775
65	0x3c046828	0.008081473
66	0x3d771620	0.060323834
67	0x3d2a8cc6	0.04163816
68	0x3d624c6a	0.055248655
69	0x3c972c84	0.018453844
70	0x3d2639e8	0.040582567
71	0xbc77a948	-0.015116043
72	0x3c7e0600	0.01550436
73	0x3c59f3b0	0.0133027285
74	0xbd12f698	-0.0358797
75	0xbd6e7ecc	-0.05822639
76	0xbd25404a	-0.040344514
77	0x3c33e3d0	0.010979608
78	0x3d4ac744	0.04950644
79	0xbb94cfe0	-0.004541382
80	0x3d65971a	0.056052305
81	0x3c189460	0.009312719
82	0xb94e0c00	-0.00019650161
83	0x3cd2c670	0.025729388
84	0x3d7dfb3a	0.062007166
85	0xbaa83fc0	-0.0012836382
86	0x3cb58edc	0.022162847
87	0xbd03f8e2	-0.032219775
88	0xbcff5784	-0.03116966
89	0x3d0cc1a8	0.034364372
90	0x3c2482b0	0.010040924
91	0xbd53c6ca	-0.051703252
92	0xbd2f3076	-0.042770825
93	0x3cbd0ec4	0.02307833
94	0x3d0d9bb4	0.03457232
95	0xbb0335a0	-0.0020020977
96	0xbcfee9cc	-0.031117342
97	0x3c910ddc	0.017706804
98	0xbd688228	-0.05676475
99	0x3c9bfa48	0.019040242
100	0x3d50e478	0.050999135
101	0x3d5ef100	0.054429054
102	0xbd5a2dde	-0.0532664
103	0xbd066130	-0.03280753
104	0x3d7bc0b2	0.061463065
105	0x3b462dc0	0.0030239671
106	0xbd4c97b0	-0.049949348
107	0x3d42a948	0.04752472
108	0xbbc54230	-0.006019853
109	0x3d5e1492	0.054218836
110	0x3d3354b0	0.043781936
111	0x3d4bef1a	0.049788572
112	0x3c551b58	0.013007008
113	0xbcf4f808	-0.029903427
114	0xbd61818e	-0.055055194
115	0x3d63e76a	0.055640616
116	0xbcab800c	-0.020935081
117	0x3d383094	0.044968203
118	0x3ced1be8	0.02894397
119	0xbba59910	-0.005053647
120	0x3d06fe7e	0.032957546
121	0xbcbe75f4	-0.023249604
122	0x3cc28cb4	0.023748733
123	0xbd1a5c54	-0.037685707
124	0x3d7ebf38	0.06219408
125	0xbd5fffba	-0.05468724
126	0xbc5d3b48	-0.013502903
127	0xbd60c054	-0.05487092

model.4.weight f4 [64, 128]
0	0xbda6b6b7	-0.08140319
1	0xbd9fffd3	-0.078124665
2	0x3d08fed9	0.033446167
3	0xbb79fe1d	-0.0038145848
4	0x3d00a1b2	0.031404205
5	0xbda75ef9	-0.081724115
6	0x3cab639f	0.020921526
7	0xbc4a2f99	-0.01234045
8	0xbc4670c3	-0.012111845
9	0x3d89ca60	0.06728053
10	0x3d56c92d	0.05243795
11	0xbd214b5b	-0.039378505
12	0xbcc3697c	-0.02385401
13	0xbdacc341	-0.08435679
14	0xbd289128	-0.041154057
15	0xbc1ae626	-0.009454286
16	0x3d99bb4e	0.07506429
17	0x3d270024	0.04077162
18	0x3d9c71fe	0.0763893
19	0x3c34bbfc	0.011031147
20	0x3b3e538c	0.0029041497
21	0x3d6e7d36	0.05822488
22	0xbd8bfc07	-0.0683518
23	0xbd072925	-0.032998223
24	0xbd5766ed	-0.052588392
25	0x3c3ad163	0.011402461
26	0x3ce27ff8	0.02764891
27	0x3d12c99c	0.0358368
28	0x3d59904b	0.053116124
29	0x3cab4c7c	0.020910494
30	0xbdb0ad61	-0.086268194
31	0x3d787f67	0.060668375
32	0xbd51232d	-0.051058937
33	0x3dac2963	0.084063314
34	0xbd94d8e4	-0.07267931
35	0xbce7f7a5	-0.028316328
36	0xbdb3d045	-0.08779959
37	0x3d3bb344	0.045825258
38	0x3d91e150	0.07123053
39	0x3d820dc5	0.063502826
40	0x3d27b63b	0.040945273
41	0x3d87eef8	0.066373765
42	0x3d9456b9	0.072431035
43	0xbd17a13c	-0.037019
44	0x3cf545e3	0.029940551
45	0xbcf504f2	-0.029909585
46	0xbd8821c7	-0.066470675
47	0x3d137c93	0.036007475
48	0x3ca7bbf7	0.02047537
49	0x3cbb28a6	0.022846531
50	0x3d00a44e	0.031406693
51	0x3d3a6007	0.045501735
52	0x3d73abcd	0.059490014
53	0xba05cdab	-0.0005104194
54	0x3c5d939e	0.013523964
55	0x3d856958	0.06514233
56	0x3c994802	0.018711094
57	0x3bcc8191	0.0062410315
58	0xbccff546	-0.02538551
59	0x3c0c91db	0.0085796965
60	0xbd74f185	-0.059800643
61	0xbd35fe8f	-0.04443222
62	0x3c8ef3cd	0.017450238
63	0xbd671a0e	-0.056421332
64	0x3d6d9cb2	0.058010764
65	0x3c0751c8	0.008259244
66	0xbd87e279	-0.06634993
67	0x3bae6538	0.005322125
68	0x3cae229e	0.021256741
69	0x3d9a3dbf	0.075313084
70	0xbda1e176	-0.079043314
71	0xbbbbe863	-0.0057344898
72	0x3d94f886	0.072739646
73	0xbc240767	-0.0100115305
74	0xbce08b73	-0.027410245
75	0x3c094cf4	0.008380163
76	0x3d5fa40f	0.054599818
77	0x3d5cd8e9	0.0539178
78	0xbc86fc33	-0.01647768
79	0x3ce56959	0.028004335
80	0xbc15e961	-0.00914988
81	0x3d4068ce	0.04697495
82	0x3d543005	0.051803607
83	0x3c6cde4b	0.014457296
84	0x3d8bd519	0.068277545
85	0x3c20bc88	0.009810574
86	0x3cd021d2	0.025406752
87	0xbd90f613	-0.07078185
88	0x3d5aaa19	0.053384874
89	0x3cb7f1d7	0.022454185
90	0x3d397b07	0.045283344
91	0xba325878	-0.0006803344
92	0x3da1d811	0.079025395
93	0x3d9700cc	0.07373199
94	0xbb727904	-0.00369984
95	0x3cea1287	0.028573288
96	0xbd2fd189	-0.042924438
97	0xbd2e5957	-0.04256567
98	0xbd3def34	-0.0463707
99	0xbd863410	-0.06552899
100	0x3d21063d	0.03931259
101	0xbda56b7b	-0.08077141
102	0xbd81c6bd	-0.063367344
103	0x3d1d75b1	0.038442317
104	0xbca563fc	-0.020189278
105	0x3d34a263	0.044100177
106	0xbd3eb953	-0.046563458
107	0xbd94825e	-0.07251428
108	0xbcf10974	-0.029423453
109	0x3d9c3ea9	0.07629139
110	0xbb93848a	-0.004501884
111	0x3cfb0f2b	0.030646881
112	0x3c87b5b4	0.016566135
113	0x3cbb7ba0	0.022886097
114	0x3c95b0a8	0.018272713
115	0x3d91c265	0.07117156
116	0x3a819a83	0.0009887967
117	0x3d7d7785	0.06188156
118	0x3d9cf139	0.07663197
119	0x3d28c340	0.04120183
120	0x3bca8aa3	0.0061810776
121	0xbcac9298	-0.021065995
122	0x3d202574	0.039098218
123	0xbd9fe372	-0.078070536
124	0x3d928cb9	0.07155747
125	0xbc0fc603	-0.008775237
126	0x3c968fdc	0.018379144
127	0x3d9a37e9	0.07530195
128	0x3c30ea47	0.010798044
129	0xb9f47cd9	-0.00046632325
130	0x3d930bb9	0.0717997
131	0x3d94e299	0.072697826
132	0xbb45102e	-0.0030069458
133	0xbd63a626	-0.055578373
134	0x3d43c2cd	0.0477932
135	0x3c97d73a	0.018535245
136	0xbd004eb0	-0.031325042
137	0xbd592941	-0.05301786
138	0x3d4c6597	0.04990157
139	0xbd797328	-0.060900837
140	0x3ccf7933	0.025326347
141	0x3d6b0697	0.05737933
142	0xbd6f6d21	-0.058453683
143	0x3d7d285e	0.061806075
144	0xbd8fc552	-0.07020058
145	0xbdb0fdb5	-0.08642141
146	0xbdaf090c	-0.085466474
147	0xbd8bee32	-0.068325415
148	0x3d10c1cc	0.03534107
149	0x3d1e099a	0.038583376
150	0x3bf9736e	0.0076126372
151	0xbd86c00f	-0.06579601
152	0x3d883630	0.066509604
153	0x3d67cf49	0.056594167
154	0x3d5e3eac	0.054258987
155	0xbbc38aa7	-0.0059674564
156	0x3d819131	0.06326521
157	0xbd5d5211	-0.054033343
158	0x3d5b9eb3	0.053618144
159	0x3d8f7f15	0.07006661
160	0x3d89c056	0.06726138
161	0x3dab53f3	0.083656214
162	0xbb2d79aa	-0.0026470223
163	0xbd1950b9	-0.0374305
164	0x3d2a1ff1	0.041534368
165	0xbd87bd96	-0.066279575
166	0x3bcbd782	0.006220759
167	0x3d8b59e1	0.068042524
168	0xbb89ec51	-0.0042090793
169	0x3d7d92c1	0.061907534
170	0xbd578462	-0.052616484
171	0x3cc998e5	0.024609039
172	0xbc796b2b	-0.015223305
173	0x3bba8280	0.0056918263
174	0xbd5ff821	-0.054679994
175	0xbb015ec2	-0.0019740318
176	0xbd7fa2bb	-0.06241105
177	0xbc0351fa	-0.00801515
178	0x3bd7656c	0.0065733697
179	0xbd4c8e62	-0.049940474
180	0x3d9f61e6	0.077823445
181	0x3d0f0d45	0.034924764
182	0x3da5c31b	0.08093854
183	0xbd6ad7be	-0.057334654
184	0x3d8fca95	0.07021061
185	0x3d92e3dc	0.07172367
186	0x3d013f89	0.031554732
187	0x3cb456b7	0.022014005
188	0xbda1f395	-0.07907788
189	0xbc93b379	-0.018029915
190	0xbda84401	-0.08216096
191	0xbcd3e8f2	-0.025867913
192	0xbd12f0be	-0.03587412
193	0x3d81f71c	0.063459605
194	0x3d1ea409	0.038730655
195	0x3d2ec379	0.042666886
196	0xbc01ade9	-0.007914999
197	0x3d236faf	0.03990143
198	0xbd02e29e	-0.0319544
199	0x3cd18d0e	0.025579955
200	0xba882ed7	-0.0010389936
201	0x3d8a7b6b	0.06761821
202	0xb903e2ef	-0.00012577673
203	0x3d255d69	0.040372286
204	0x3d6573b1	0.056018535
205	0x3d51744b	0.051136296
206	0x3c0c7286	0.008572226
207	0x3c044648	0.008073397
208	0xbd061962	-0.03273905
209	0xbbd1445a	-0.006386322
210	0x3c18a40c	0.009316456
211	0xbd939ee5	-0.07208041
212	0xbb372aba	-0.002794905
213	0x3c832ed8	0.016013548
214	0x3d1069d4	0.035257176
215	0x3d29b794	0.04143484
216	0x3dab718f	0.08371269
217	0x3d47a1a8	0.04873815
218	0x3d6b40a6	0.0574347
219	0x3cd2e57b	0.02574419
220	0x3d8dce7c	0.069241494
221	0xbcd3ae03	-0.025839811
222	0x3ce53c4b	0.027982851
223	0x3bb52070	0.0055275485
224	0xbcfe4dd1	-0.031042965
225	0xbcd78352	-0.026307736
226	0xbd95c312	-0.07312597
227	0xbc73f4a4	-0.01488987
228	0xbd057c37	-0.032589164
229	0x3cfefb09	0.031125562
230	0x3d993fd9	0.07482881
231	0xbc9b5d3b	-0.018965354
232	0x3d50a040	0.050934076
233	0x3d9967ee	0.07490526
234	0x3d870fa5	0.06594781
235	0x3ca289f1	0.019841166
236	0xbd4fab2e	-0.05070036
237	0x3db4b61b	0.08823796
238	0xbdae5e56	-0.08514087
239	0xbcd25b9e	-0.025678452
240	0x3cbfdc30	0.023420423
241	0x3d9360ac	0.07196173
242	0x3d890aa3	0.06691482
243	0xbc80af66	-0.015708636
244	0xbd895f2f	-0.06707608
245	0xbd5d1972	-0.053979345
246	0x3c0f331c	0.008740213
247	0xbc8cef65	-0.017203996
248	0x3db07001	0.08615113
249	0x3baa0e71	0.00518971
250	0x3d6b79a3	0.05748905
251	0xbd722643	-0.05911852
252	0xbd907d2a	-0.07055123
253	0xbda06304	-0.07831386
254	0xbda4f454	-0.080544144
255	0xbd41642b	-0.04721467

model.4.bias f4 [64]
0	0xbd62d256	-0.055376373
1	0xbd5e1086	-0.054214977
2	0x3d11228a	0.03543333
3	0x3d978249	0.07397897
4	0xbd2eee08	-0.042707473
5	0xbd330668	-0.04370728
6	0xbd848162	-0.0646999
7	0xbd9d9cfe	-0.076959595
8	0x3d5802a2	0.052736886
9	0xbd472666	-0.048620604
10	0x3d61543c	0.055011973
11	0x3d6d5bda	0.057948925
12	0xbda5033b	-0.08057257
13	0xbdac93bc	-0.084266156
14	0xbd66ac88	-0.056316882
15	0xbd2c1055	-0.042007763
16	0xbd76cec6	-0.06025579
17	0xbc2b829a	-0.01046815
18	0xbdb0ebe0	-0.086387396
19	0x3d3f3a7e	0.046686642
20	0xbda1c6a8	-0.07899219
21	0xbcca6f26	-0.024711203
22	0xbd680f06	-0.056654952
23	0x3d6c6a6e	0.057718687
24	0xbd5c37bf	-0.0537641
25	0x3ce655be	0.028117057
26	0x3c9cb92c	0.019131266
27	0x3d4c83ad	0.049930263
28	0xbc947e91	-0.018126758
29	0xbbb5fa67	-0.005553532
30	0xba67f4b5	-0.0008848415
31	0xbca9aad4	-0.02071134
32	0x3ce24da2	0.027624909
33	0x3db1f411	0.0868913
34	0xbd9fb816	-0.077987835
35	0x3d29c561	0.041448
36	0x3d28c20c	0.041200683
37	0xbd74729b	-0.05967961
38	0xbd9cafe3	-0.07650735
39	0x3d7eb1f9	0.062181447
40	0x3d8814ff	0.0664463
41	0xbda4640e	-0.080268964
42	0x3da0e0f0	0.078554034
43	0x3c3d8c73	0.01156913
44	0xbd8997f7	-0.06718438
45	0x3d7a55c6	0.061116956
46	0x3d202141	0.039094213
47	0x3c3c512b	0.011493961
48	0x3c6cf0a3	0.014461669
49	0x3d6a0d3c	0.057141528
50	0xb98f61ea	-0.00027348037
51	0xbd83c9d6	-0.064349815
52	0x3da897b8	0.08232063
53	0xbd87acff	-0.06624793
54	0x3d9a0b49	0.07521684
55	0x3d42c54d	0.047551442
56	0x3d6423a9	0.05569807
57	0x3d2c32c0	0.042040586
58	0x3c5ec1a4	0.013595972
59	0xbcc709a1	-0.024296584
60	0xbcce8348	-0.025209084
61	0x3ab813b7	0.0014043961
62	0xbd35bfea	-0.044372477
63	0x3d8cf384	0.068823844

model.6.weight f4 [15, 64]
0	0x3c61a0b0	0.013771221
1	0xbcdbb6f8	-0.026820645
2	0xbd956fca	-0.07296713
3	0xbd449374	-0.047992185
4	0x3dfdc71a	0.12391491
5	0xbdc33990	-0.095324636
6	0x3d698d30	0.057019413
7	0x3decb1a8	0.11557323
8	0x3d0ed6ec	0.034872934
9	0xbbf67d60	-0.00752227
10	0xbd44fddc	-0.04809366
11	0x3db79a28	0.0896495
12	0x3df1e632	0.118114844
13	0xbdc04cd2	-0.09389652
14	0xbd802932	-0.062578574
15	0xbbf481e0	-0.0074617714
16	0xbc67e110	-0.01415278
17	0x3a616b00	0.0008599013
18	0x3dc52574	0.09626284
19	0x3d8f33d0	0.06992304
20	0xbd501888	-0.050804645
21	0x3dcc5454	0.09977022
22	0xbdf5fcba	-0.120110944
23	0x3d2cb1bc	0.04216169
24	0xbcf45008	-0.029823318
25	0xbdc5954e	-0.09647618
26	0xbdd04eaa	-0.10171254
27	0x3b729c80	0.003701955
28	0xbdad5bf6	-0.08464806
29	0x3da1ff60	0.07910037
30	0xbc718e60	-0.0147434175
31	0x3da8a018	0.082336605
32	0xbdac4e88	-0.08413416
33	0x3d436a94	0.047709063
34	0xbd5874c4	-0.05284573
35	0x3c0b28e0	0.008493632
36	0xbde844ec	-0.11341271
37	0x3d94559c	0.07242891
38	0x3d8ed7b0	0.06974733
39	0x3d092f94	0.03349264
40	0x3dc892e6	0.09793644
41	0xbd7b5f94	-0.061370447
42	0x3d7abef8	0.06121728
43	0x3dd28a88	0.10280329
44	0xbdddc79e	-0.108290896
45	0xbc94bc80	-0.01815629
46	0xbde07d12	-0.10961355
47	0xbd96af2e	-0.073576316
48	0xbc254020	-0.010086089
49	0x3b5b2880	0.0033440888
50	0xbca7dc18	-0.020490691
51	0xbddc4128	-0.10754615
52	0xbdd0d6cc	-0.10197219
53	0x3d886120	0.0665915
54	0x3b069840	0.0020537525
55	0x3d458f40	0.048232317
56	0x3de931c4	0.11386445
57	0xbd201798	-0.039085
58	0x3ddb5550	0.107096314
59	0x3d864662	0.06556393
60	0xbd8571ba	-0.06515832
61	0x3cac3bb0	0.021024555
62	0x3c93bf38	0.018035516
63	0xbda5fae8	-0.08104497
64	0xbd928a1c	-0.071552485
65	0xbdb5c15a	-0.088747695
66	0x3cc097f0	0.02350995
67	0xbd34ddec	-0.044156954
68	0x3cf92ae8	0.030415967
69	0xbda8ea90	-0.08247864
70	0xbd0f399c	-0.03496705
71	0x3d250928	0.040291935
72	0xbde44a86	-0.11147027
73	0xbd091408	-0.03346637
74	0xbdfd0536	-0.123545095
75	0x3da8e21e	0.082462534
76	0xbc208e90	-0.009799615
77	0x3d821538	0.063517034
78	0xbd80cc4a	-0.06288965
79	0xbd6f65c8	-0.058446676
80	0x3d287598	0.04112777
81	0x3dbdc8de	0.09266828
82	0xbb6bcfc0	-0.0035981983
83	0xbd3bbf18	-0.045836538
84	0x3c8bee08	0.017081276
85	0xbcf86410	-0.030321151
86	0xbde88e26	-0.11355238
87	0xbdda103c	-0.10647628
88	0xbddd82ee	-0.108159885
89	0xbdce5e76	-0.10076611
90	0xbccb3fa8	-0.024810627
91	0xbd8881ac	-0.06665358
92	0xbda9c61e	-0.08289741
93	0x3ca429f8	0.020039544
94	0x3ddd5218	0.10806674
95	0x3d289b08	0.041163474
96	0x3ca2a7d8	0.019855425
97	0xbddfa812	-0.10920729
98	0x3c40ac30	0.011759803
99	0x3b3c9240	0.0028773695
100	0xbd7e7568	-0.062123686
101	0x3be2b1e0	0.006918177
102	0xbc3a5d70	-0.011374816
103	0x3db25348	0.08707291
104	0x3d2790cc	0.040909573
105	0x3d56f5c4	0.052480474
106	0xbd8fdc4c	-0.0702444
107	0x3db3fd46	0.087885424
108	0x3cdb0650	0.026736408
109	0xbd70f1e0	-0.05882442
110	0xbd9a5a0a	-0.07536705
111	0x3debdbb6	0.11516516
112	0xbdbc26ba	-0.09187074
113	0x3d3d90bc	0.046280608
114	0x3de530ec	0.11190972
115	0xbc108480	-0.008820653
116	0x3df75426	0.12076597
117	0x3daf9346	0.08573012
118	0xbdeb4124	-0.11487034
119	0x3d988c34	0.074486166
120	0x3df00c00	0.11721039
121	0xbd1a1bf4	-0.037624314
122	0xbdd483d4	-0.10376707
123	0xbddb8e94	-0.10720554
124	0xba361700	-0.0006946176
125	0x3d9a30ca	0.07528837
126	0x3d9a579c	0.075362414
127	0x3da5fb36	0.08104555
128	0x3da04748	0.07826096
129	0x3d40d5b8	0.047078818
130	0x3dc1a94e	0.094561204
131	0xbd331a6c	-0.04372637
132	0xbd767ff0	-0.060180604
133	0xbdca99ac	-0.09892592
134	0xbd66a0ec	-0.05630581
135	0xbdab7932	-0.083727255
136	0x3d463a70	0.048395574
137	0x3c6b19f0	0.014349446
138	0xbd94f1fa	-0.07272716
139	0xbdae62ec	-0.085149616
140	0xbd8470c8	-0.06466824
141	0xbcaa7518	-0.020807788
142	0xbde7a6a4	-0.11311081
143	0xbdcbd62c	-0.099529594
144	0xbd37a2dc	-0.04483305
145	0xbb5857c0	-0.0033011287
146	0xbdc920e8	-0.098207295
147	0xbcd81458	-0.026376888
148	0x3dac401c	0.084106654
149	0xbdb72e52	-0.08944382
150	0x3d0f9e64	0.035063162
151	0xbd9ebc94	-0.07750812
152	0xbc8b97f8	-0.017040238
153	0x3be68360	0.007034704
154	0x3dfb91e2	0.12283684
155	0x3dde6d00	0.10860634
156	0xbc82c670	-0.015963763
157	0x3dc37e38	0.09545559
158	0x3d460080	0.04834032
159	0xbded114e	-0.11575566
160	0xbd913244	-0.070896655
161	0xbcecc828	-0.028904036
162	0x3d7dd8b0	0.061974227
163	0x3ca2f898	0.01989393
164	0x3db71c30	0.08940923
165	0x3da0bab2	0.07848109
166	0xbdb65394	-0.0890266
167	0xbd583024	-0.052780285
168	0x3dbae174	0.09125033
169	0xbb56fc40	-0.0032804161
170	0x3d5202a8	0.051272064
171	0xbdc28efa	-0.09499927
172	0xbdb5d84e	-0.088791475
173	0xbdc6f8bc	-0.09715411
174	0xbdd9621e	-0.106144175
175	0xbda267c0	-0.07929945
176	0x3df4cab6	0.119527265
177	0x3de21cea	0.11040671
178	0xbc516800	-0.012781143
179	0xbda162fe	-0.078802094
180	0xbb4054c0	-0.002934739
181	0xbd3f26ec	-0.04666798
182	0xbdbf33f0	-0.09336078
183	0xbda9c4ea	-0.082895115
184	0xbd0461f0	-0.032319963
185	0xbc5623d0	-0.013070062
186	0x3dd70980	0.10499859
187	0x3d857b1c	0.06517622
188	0x3dbc36f4	0.09190169
189	0xbdbe526c	-0.092930645
190	0xbdb77c36	-0.08959238
191	0xbd88e83e	-0.06684922
192	0x3dabf49c	0.08396265
193	0xbd44211c	-0.047883138
194	0x3dabbc54	0.0838553
195	0xbd19b328	-0.037524372
196	0x3d80e270	0.062931895
197	0xbd9523d2	-0.07282223
198	0xbd841888	-0.064499915
199	0x3d7c2a10	0.06156355
200	0xbd11b208	-0.035570174
201	0x3d6be034	0.057586864
202	0xbd5f669c	-0.054541215
203	0xbd055fb4	-0.032561973
204	0x3de0fee0	0.109861135
205	0xbccc92c0	-0.02497232
206	0xbd92812e	-0.07153545
207	0xbd4a527c	-0.04939507
208	0xbdfc4afa	-0.12318988
209	0xbd1b4d00	-0.03791523
210	0xbc1d2190	-0.009590521
211	0xbddc939e	-0.10770343
212	0x3dddd2f2	0.1083125
213	0xbda0a250	-0.07843459
214	0xbc59a010	-0.013282791
215	0xbbbd60a0	-0.005779341
216	0x3dff5e44	0.124691516
217	0x3d66a208	0.05630687
218	0x3d50bc00	0.05096054
219	0x3d14d1a0	0.036332726
220	0x3daf5828	0.08561736
221	0x3c286a70	0.010279283
222	0x3be0b480	0.006857455
223	0xbd0c5870	-0.034264028
224	0xbdd76dfc	-0.10519025
225	0xbd2e12bc	-0.042498335
226	0x3d66cde4	0.056348696
227	0x3dc63fd8	0.09680146
228	0x3d317af0	0.043330133
229	0x3c6e36a0	0.014539391
230	0xbddaaae4	-0.10677126
231	0xbdf457d0	-0.119308114
232	0x3de66ab4	0.11250821
233	0xbd3f35f0	-0.0466823
234	0x3da34e5e	0.07973932
235	0x3dccb514	0.099954754
236	0x3d3d4344	0.046206728
237	0xbd6057d8	-0.054771274
238	0x3d85fa7e	0.06541918
239	0xbde404c6	-0.11133723
240	0x3cf4bc10	0.029874831
241	0x3ce05e38	0.027388677
242	0x3d0ebb0c	0.03484635
243	0x3df455da	0.119304374
244	0x3d28c2d8	0.041201442
245	0xbd807eec	-0.062742084
246	0x3b6f9c00	0.003656149
247	0x3dcdd320	0.100500345
248	0xbdb9a1ec	-0.09064087
249	0xbd62b6d0	-0.055350125
250	0x3d8d5eca	0.06902845
251	0x3d5ac7e8	0.0534133
252	0xbd51d6f0	-0.05123037
253	0x3d6cc550	0.05780536
254	0x3df3109a	0.11868401
255	0xbc997000	-0.018730164

model.6.bias f4 [15]
0	0x3c99dc78	0.018781886
1	0x3da5b686	0.08091454
2	0x3d898f64	0.06716803
3	0xbde4d7b8	-0.111739576
4	0x3d883054	0.06649843
5	0x3d2dc094	0.042419985
6	0x3d42c984	0.04755546
7	0x3b6f7080	0.003653556
8	0x3db4c1e2	0.08826043
9	0xbdfd8eb6	-0.123807356
10	0xbcbcbf78	-0.023040518
11	0x3de6f19c	0.11276552
12	0xbd33d4b8	-0.043904036
13	0x3dd88646	0.105724856
14	0x3db111d6	0.0864598
