models/bot_palmeiras_model.pth (torch, 191797 bytes, 8 tensors)

model.0.weight f4 [256, 18]
00000000: 70c0 24be 5ad4 d63c a034 873d 89c9 a43d
00000010: 4f6d f4bd a47e 673e c642 0a3e aa3a 453e
00000020: db58 ba3d acf5 cf3d 4746 353e 9ed7 c6bc
00000030: ff43 1b3e f8ac 5fbe 2f5e 6bbe 15ad 30be
00000040: 36d0 423e 016b 25be 5242 04be 8fa5 e83d
00000050: 1614 503e a053 89bd f492 8ebd 309c 233e
00000060: bcf0 543e 7281 99bd dffd a2bd e163 423e
00000070: ea05 2b3e 94d1 c03d d6a8 f4bd ae61 3aba
00000080: 5992 a93c 13c9 0abe 2ff0 edbd 5b5c 343e
00000090: cbc4 55be 7531 363e b26b 47bb c08f 38be
000000a0: c651 dfbd a063 02bd e87a 473e 39bb ae3c
000000b0: 39be a6bd a87f 82bd 3edc 8f3d 2add 19be
000000c0: 59e4 ea3d 2a73 443e 99a0 babd cbb8 6dbc
000000d0: 7e78 34be 6ce4 49be 16b3 063e c9d4 18be
000000e0: 9e08 833d 3db4 57bd 6e55 13bc 6b3b 3ebd
000000f0: eaff c23c 9d95 d1bd 5695 053e 5b74 aabd
00000100: 8069 043e 332f 353d 5cb0 6dbe a84a 893d
00000110: 48da 2dbe ecee febd bc28 a7bd 4ab0 143e
00000120: 28dc 32be 5de8 f5bc 98cc 6e3d 3488 0abe
00000130: d505 ec3d e962 333e 8f55 26be 3490 b4bd
00000140: 2e80 59be 188b 24be 6dff 723d 35b6 27be
00000150: edfe 4a3e b053 703e f8aa 0abd 2ded ae3d
00000160: b6c6 92bd 0222 5f3e 6bb8 643d 4563 2b3d
00000170: c2c6 023e 89fc ab3d 6e56 58bd e305 093e
00000180: be6e f0bd eeb5 07be 1cf7 6eba 55c7 f43b
00000190: 4f08 623e 743b 303e d9c1 973d 09f0 413e
000001a0: b026 593e c60c 4abd 45d8 223e a947 503e
000001b0: 5bff eebd 8b5b 13be 8734 403d a2d2 94bd
000001c0: b71a 38be 56cc 643e 8ee4 603e 768d c0bd
000001d0: 5331 11be 6727 823c 4d89 f6bd 500c ddbd
000001e0: 35c0 d33d a231 e63c 275b b2bd 4582 46be
000001f0: fb3a 333d 7603 543e 3765 eabd bd9c 303e
00000200: 521f 0cbe dd28 ebbd 2c13 463e 7040 243e
00000210: 4dbb 68be 2c44 b33d 0ef7 ab3c 5cc6 053e
00000220: cfcb 183e 1678 c1bd 96f4 66be df87 9a3d
00000230: 2948 65be 74d8 48be 0537 ba3b b233 063e
00000240: 10c1 c63d c9d4 ef3c 9dc7 673e fe10 2dbe
00000250: 2613 c23c 1ea7 d93d c38b 2abe 0a4a 833d
00000260: e3ed 11be 04f4 52be eb58 35bd bb82 523e
00000270: a089 e1b9 8a5f aabd 9924 9bbd 4814 40be
00000280: a890 053e 6a29 bdbd 461c c53d f0b3 e23d
00000290: abc6 5b3e 2ba9 473e fd42 ccbd f543 df3d
000002a0: 88d3 9b3d 68aa 963d 5318 673e 5f4d 603e
000002b0: 710f 373d 192f 093e f732 01be b38e 253e
000002c0: e8e6 453e 6efc 69bd 8fd3 2b3e c61e 533e
000002d0: 2daf 413e e1c0 2e3c 302d 5abd 0a25 0d3e
000002e0: fc47 3f3e 7cee 2d3d a7aa fc3d 4fe8 6a3d
000002f0: 1f24 0b3d 291b c8bd 5920 5dbe a0d8 273e
00000300: cdc3 5dbe be2e 383e f540 dbbc a2af e8bd
00000310: 649d 463e 2a97 503e 7aa5 43be 9b6d fcbd
00000320: 74f1 46be 13de 543e 4efb 3a3e 1725 29be
00000330: c8f1 6a3e cfd6 483e 6645 723c 26f0 a5ba
00000340: 9af0 053e 5686 5bbe 9920 443e 0520 cebc
00000350: 0ae2 203e 22df 113c e143 f8bd d5fe b1bd
00000360: 6514 08be 83e5 423e 37fd 91bd 6e21 cbbd
00000370: 5a49 6e3e d205 e63d d362 8ebc c32b 1ebb
00000380: 37d4 52be 3d81 57bd 048a 523e 4f51 2e3e
00000390: 2ef2 103e 623a bc3c c66a c23c f67b 8a3d
000003a0: 501b 84bd 62bd 3abe 752e 2f3e a1c8 2fbc
000003b0: ed1b 6e3e 4dc2 1a3e 51a8 17bd 76c9 173e
000003c0: 6fea 3f3e 087e 3e3e 0eac 42be 659d 29bd
000003d0: a08f b8bd 59b5 6ebc 0f11 6d3e 87b2 6c3e
000003e0: 5b79 c2bd 35e6 c93d 2270 8a3c eab2 d9bd
000003f0: e423 1cbe e0c9 ebbd 307c d1bd fc99 03bd
-0.16089034 0.026224304 0.06601834 0.08046252 -0.119349115 0.22606903 0.13502035 0.1926066
0.09098979 0.1015428 0.1770259 -0.024272736 0.15162657 -0.21843326 -0.22985147 -0.17253526
0.19024739 -0.161541 -0.12915924 0.11359703 0.20320162 -0.06705403 -0.06961623 0.1597755
0.20794958 -0.07495393 -0.07958578 0.18983413 0.16701475 0.09414974 -0.119462654 -0.00071098923
0.020699667 -0.13553266 -0.11618077 0.17613356 -0.20875852 0.17792304 -0.0030429182 -0.18023586
-0.10904269 -0.03183329 0.19480479 0.02132951 -0.08141751 -0.06372005 0.0702443 -0.15025774
0.11469335 0.19184557 -0.09112663 -0.01450939 -0.17624089 -0.19716042 0.13154253 -0.14924921
0.06398128 -0.052662123 -0.008992536 -0.046443384 0.02380367 -0.102336146 0.13045248 -0.08322974
0.1293087 0.044234466 -0.23211807 0.06703693 -0.16977799 -0.124479145 -0.08162066 0.14520374
-0.17466795 -0.030018026 0.058300585 -0.1352852 0.1152455 0.175182 -0.16243576 -0.08816567
-0.21240303 -0.16068685 0.059325624 -0.163781 0.19823809 0.23469424 -0.033854455 0.085413314
-0.07166807 0.21790317 0.055839937 0.041842718 0.12771133 0.08397777 -0.0528168 0.13381152
-0.117398724 -0.13252994 -0.00091158017 0.0074700513 0.22073482 0.1721018 0.074100204 0.18939222
0.21206164 -0.049328588 0.15902813 0.20339836 -0.11669799 -0.1439039 0.046925094 -0.072667375
-0.17978941 0.22343573 0.21962187 -0.094019815 -0.14178972 0.01588793 -0.12037907 -0.10793364
0.10339395 0.028099839 -0.08708792 -0.19385631 0.04375742 0.20704445 -0.114450864 0.17247291
-0.13683823 -0.114824034 0.19343251 0.16040206 -0.227277 0.08753237 0.020991828 0.1306395
0.14921497 -0.09446733 -0.2255424 0.075454466 -0.22390808 -0.1961382 0.0056828284 0.13105658
0.097047925 0.029276269 0.2263474 -0.16901013 0.023690771 0.10627578 -0.16654877 0.06410606
-0.14250903 -0.20600897 -0.044274252 0.20557682 -0.00043017883 -0.08319004 -0.0757534 -0.18757737
0.13043463 -0.09236415 0.09624533 0.110694766 0.21462505 0.19498126 -0.099737145 0.10901634
0.07608706 0.07356721 0.22567873 0.21904515 0.04469246 0.13396873 -0.12617098 0.16167717
0.19326365 -0.0571255 0.16779922 0.20617208 0.1891448 0.010666103 -0.05326575 0.1378366
0.18679804 0.042463765 0.12337237 0.057350453 0.033969995 -0.097708054 -0.21594371 0.1639123
-0.21656723 0.1798658 -0.026764372 -0.11361624 0.19395977 0.20370165 -0.19106093 -0.12325593
-0.19428045 0.2078784 0.18259928 -0.16518055 0.22943795 0.19613193 0.014787054 -0.0012660071
0.13080063 -0.21437964 0.1915306 -0.025161752 0.15711227 0.008903297 -0.12122322 -0.086911835
-0.1328903 0.19032864 -0.07128375 -0.099184856 0.23270169 0.11231579 -0.017381107 -0.002413497
-0.20588766 -0.052613486 0.20560461 0.17023204 0.14154884 0.022977058 0.023732554 0.06761925
-0.06450522 -0.18236306 0.17107566 -0.010728986 0.2325284 0.15113182 -0.037025753 0.14822945
0.18741773 0.18602765 -0.19010946 -0.04140987 -0.09011769 -0.014569604 0.23151039 0.23114978
-0.09495803 0.09858362 0.016899172 -0.10629828 -0.15248066 -0.11513114 -0.10228765 -0.032129273

model.0.bias f4 [256]
00000000: a5b4 1cbc 3c9a 30be 1f44 52be e1e4 733d
00000010: ca89 683c 85a5 ac3d 5528 333d 09a9 3f3e
00000020: d8dd 6bbe 42bc a2bd c71a 783d b87e 193d
00000030: 1b6a 0fbe e5bf 9abd 9575 ddbc da02 38be
00000040: 3513 42bc 1f49 163d fc50 033e 9c11 87bd
00000050: bad2 70be 5144 07bd e20e f6bd 07e1 dabc
00000060: fde8 5dbd 4891 d03d af57 40be 0335 db3d
00000070: b7ee 493e f071 1bbe b8c0 1e3e eabd 14be
00000080: 78bd 433e 6d7e 46be 6824 9b3d 7ac9 17be
00000090: 22a0 fb3d cd73 593e fff8 bebd 6336 d73d
000000a0: 7ac7 203d a9df 163e b623 e0bd 7e0d 8a3c
000000b0: 10a4 033d e2f7 73bd f2a6 6ebe 46a8 ebbd
000000c0: 562e 943d 8543 ccbd 35a9 fbbc 3281 403e
000000d0: 6984 2c3e cb0f a8bc 87fe 5b3e 8331 3cbd
000000e0: f533 38be 4603 fc3d 20c0 b43d 296d 5c3e
000000f0: 5076 4b3c a280 48be 0824 263e 5bfd 603d
00000100: 9836 5f3e 0a23 6cbe 37ff 0fbe 6de2 8d3b
00000110: 9884 e4bc 0ad6 163e dca1 033e 0ae6 3f3e
00000120: ce60 673e a2fe 283e b4bb 9dbd 4da1 01be
00000130: 2e3a 3abe 6e43 493e ef62 bbbd d35e 3bbb
00000140: 5ebd 58be 6b3f 533e 7129 39be 2f55 353e
00000150: 3f44 b9bd 7f2d 293e 20bf 07be 4778 dd3d
00000160: 477f 41be 42e1 123e 4de7 a1bd cbd9 e0bd
00000170: dcf9 f3bc eff1 32be 4ee5 5dbc 82a1 dcbc
00000180: c45f 493d 87e6 533e cb23 6b3e 61c0 2bbe
00000190: 0bf2 61bc a346 c9bb 630b 8abd fd6e 36be
000001a0: a3d5 af3d 9bf8 e5bd 9b55 08be 001d b23d
000001b0: 72b5 d7bd f9cf f73d 6ea3 ecbd 8349 473e
000001c0: f20d 3abd 44cd 983d a9f9 5fbe 8665 33bc
000001d0: fc3b 07be b68a 8c3d 41ee 8c3d 2575 debd
000001e0: 642b 433e 7203 00be fccd 3a3e f9ec 373d
000001f0: 8b24 813c e672 31bc 7618 07be 0392 d4bd
00000200: 797a c7bd 3127 a23d c7ad 3e3e 1502 d9bd
00000210: bc9e 2fbe 9c92 0f3e fcab f2bc c5d6 743d
00000220: 7c8a c13d 041e 883d 0f28 a23d ea32 9bbc
00000230: 5916 c9bd cb06 44be 3cc5 393e 058e 71bd
00000240: b016 443d b426 8dbd ea80 1cbe ad65 c33c
00000250: cf53 63be 9a13 f0bd 8302 703c 3195 5e3e
00000260: b630 2c3d 133f 333d bb5b babc 01ca 1f3e
00000270: 617a b1bd 6d54 0fbe 55f1 d1bd b60b a6bd
00000280: 6027 833c 5885 4fbd 9125 a73d c7f1 453d
00000290: 2e3a e1bd 861b 953d 7799 08bd 3550 663e
000002a0: a2d1 7dbd a714 f3bd 5d7a 7cbd ff2b 0b3e
000002b0: a169 fdbc 3ffd c23d 5f92 de3d c554 223e
000002c0: e8aa 08bd 9ca5 d0bc f565 053e 7bcb d5bb
000002d0: 59c6 07be 4306 58be 892f 1e3b d937 653c
000002e0: 5725 e3bc b6e6 943b 0612 dabc 55f4 97bd
000002f0: 7a9c 3fbe 6c4d 5fbe 0033 473e c746 5b3e
00000300: 4595 72bd 54f1 4fbd ad94 0e3d 8406 94bd
00000310: af0b 693e 47ae fdbd 826b 573e 3ecc 0b3e
00000320: 7ac5 2e3c 13ff 04be e15e 813d 4e79 c53c
00000330: a3f7 7cbd 7950 0f3b 0bc4 cfbd 00c3 21bc
00000340: ca9b 86bd 3a41 893d bb59 67bd 8035 f8bd
00000350: 6cfd d63d e377 0d3d 3edb cebd 5717 46bd
00000360: a7e3 dbbd 790e 53be 00db bd3d 4744 973d
00000370: 3276 bf3d dc07 2e3e 094f 0c3e 3048 253e
00000380: 7d74 20be 5a9d 3fbe 1c1c 2bbe 6844 f8bc
00000390: 4224 223e 86de 53be cc1f 003d a34a 873d
000003a0: 56f6 b43c 080a 263e f37b 233e 7f88 a5bc
000003b0: f466 5cbe 51ae 58be 2544 3d3e a89d 0cbe
000003c0: f396 7f39 3809 ad3d 4c70 66bd 7206 323d
000003d0: b1bc 25be 0d96 413e 7fda 0b3e 6700 443e
000003e0: fa78 6d3e f53b d03c ff79 533e 1396 49be
000003f0: 1679 08be 9ea9 fbbd fde6 4dbe 8f71 e23b
-0.009564553 -0.17246336 -0.20533799 0.059544448 0.014193008 0.08430008 0.043739635 0.18716826
-0.23033845 -0.079460636 0.060572412 0.037474364 -0.1400532 -0.07556132 -0.027033607 -0.17969838
-0.0118454 0.036690827 0.12823862 -0.065951556 -0.23517886 -0.033024136 -0.120145574 -0.02671863
-0.054177273 0.1018396 -0.18783449 0.107034706 0.19719969 -0.15180182 0.15503204 -0.14525571
0.19115245 -0.19384165 0.07575303 -0.14822951 0.12286402 0.2123558 -0.09324836 0.1050842
0.039252736 0.14733757 -0.10944311 0.016852137 0.032138884 -0.05956257 -0.23305872 -0.11506705
0.072354004 -0.09973816 -0.030720333 0.18799284 0.16847385 -0.020515343 0.21483813 -0.045945656
-0.1798857 0.12305312 0.088257074 0.21526016 0.012418345 -0.1958032 0.16224682 0.05492912
0.2179817 -0.23060241 -0.140622 0.0043299706 -0.027895257 0.14730087 0.12854713 0.18740097
0.22595522 0.16503385 -0.07701817 -0.12659188 -0.18186256 0.19654629 -0.091497295 -0.0028590455
-0.21165988 0.20629661 -0.18082215 0.17708276 -0.0904622 0.16521262 -0.13256502 0.10813957
-0.18896209 0.14343742 -0.07905445 -0.10979041 -0.029782228 -0.17475103 -0.01354344 -0.026932482
0.049163595 0.20693408 0.22962873 -0.16772605 -0.013790618 -0.0061424538 -0.06740453 -0.17815776
0.0858567 -0.11229058 -0.13313906 0.086969376 -0.10532655 0.121002145 -0.11554609 0.19461636
-0.045423456 0.07461026 -0.21872582 -0.010949498 -0.13206476 0.068623945 0.06881381 -0.10862187
0.19059521 -0.12501314 0.1824264 0.04490373 0.015764495 -0.010830617 -0.13192925 -0.10379412
-0.09740157 0.079176314 0.18620978 -0.105961 -0.17150396 0.14020771 -0.029623024 0.059775133
0.09450242 0.0664635 0.07917797 -0.018945176 -0.098187156 -0.19143216 0.18141645 -0.05897333
0.0478732 -0.06892148 -0.15283552 0.023852194 -0.22199939 -0.11722489 0.014649036 0.217366
0.042038642 0.043761324 -0.022748819 0.15604402 -0.0866592 -0.1399705 -0.102511086 -0.081077024
0.016009986 -0.050664276 0.08161462 0.04832628 -0.10997425 0.0728064 -0.03334948 0.22491534
-0.0619675 -0.118691735 -0.061640132 0.13591002 -0.030934157 0.09520959 0.10867762 0.1585265
-0.033366114 -0.025469594 0.13027175 -0.006524501 -0.13259257 -0.21096139 0.002413722 0.013990366
-0.027727766 0.0045441044 -0.026619922 -0.074196495 -0.18712035 -0.21806878 0.19453049 0.21413718
-0.059224386 -0.050767258 0.034809757 -0.07227805 0.22758363 -0.123867564 0.21037105 0.13652131
0.010667199 -0.12987928 0.06316925 0.024105694 -0.061759602 0.0021868034 -0.10144814 -0.009873152
-0.06572683 0.06701894 -0.056482058 -0.12119579 0.10497555 0.03453816 -0.10100411 -0.048362102
-0.107367806 -0.2061099 0.092702866 0.0738607 0.09348716 0.16995186 0.13702025 0.16140819
-0.15669437 -0.18712369 -0.16709942 -0.030306056 0.15834144 -0.20690355 0.031280324 0.06606033
0.022090118 0.16214764 0.15965252 -0.020206688 -0.21523649 -0.21160246 0.18483026 -0.13732016
0.00024374928 0.08449024 -0.05625944 0.043463178 -0.16185261 0.18904896 0.13657568 0.19140778
0.2319068 0.025419215 0.20652007 -0.19686155 -0.1332744 -0.12288211 -0.20107646 0.00691051

model.2.weight f4 [128, 256]
00000000: aa7b 7dbd 407a a9ba a23a 513d f851 a53c
00000010: 2008 34bd c8f6 023d f893 fbbc 1c87 99bc
00000020: 58bf 3a3d 120c 563d 7481 85bc c8c6 25bd
00000030: a09a 6dbc 6cd3 f53c b0ab 96bc 506d 173d
00000040: e024 df3c 009d 51bd 205c 3ebc 8098 563d
00000050: 906b 82bb 60b4 e83c de9f 573d a064 01bd
00000060: 78d0 163d ac39 973c aa1d 5e3d c0fe d3ba
00000070: f055 38bc 94e0 9abc c0a4 183c 8c3e bd3c
00000080: 40e3 f5bb a040 e2bc 7e5a 173d f07e 7a3c
00000090: 8055 a5ba 900c 193d e6ac 63bd 781a 26bc
000000a0: 8079 37bc 229f 19bd 20a5 1dbc 5e62 003d
000000b0: 70af fabc 02d2 35bd 50b3 9b3b aef4 1dbd
000000c0: 2841 1ebd 9681 5ebd f4dd b0bc 8029 cabc
000000d0: b46f 12bd 8439 193d 80ef 213d 1cfb 03bd
000000e0: 9041 e03c 048d a43c 8673 6cbd 1008 113d
000000f0: 7044 db3c 640a ad3c 5ccd 603d d803 0bbd
00000100: 78a3 a6bc 5ca7 f53c 0a46 773d ccbe 2d3d
00000110: 4428 7c3d f833 5e3d 883b 643d 184e 6c3c
00000120: 8ca9 8abc 4038 2c3b 048d 39bd 3cdd c73c
00000130: e0e2 713c 76d7 1b3d d8fd 5b3d 70da 4fbc
00000140: 7cca 82bc d668 063d f04c c2bb 945a ce3c
00000150: d622 513d 902c 6e3d 66ec 35bd 0027 053c
00000160: ca19 1ebd 0089 b53b f0bb 8b3b 74e9 603d
00000170: bc1f 853c 5a7b 2dbd b842 e7bc 40fb b7bc
00000180: 7255 49bd 4660 4ebd 743e 8d3c 00db 9d3a
00000190: 6011 cdbb fc51 053d 66fd 0bbd 0815 b93c
000001a0: 20e4 713c f012 1e3c f6ff 31bd ec16 4abd
000001b0: 248e 923c 408a a73c d47e 263d 9212 293d
000001c0: ee71 31bd 2015 57bc e0cc 8abb bc42 d93c
000001d0: c447 bbbc cc72 41bd 309f fe3b 98ce 3f3c
000001e0: a0f0 e43b 0221 1e3d 6850 713c 16e6 70bd
000001f0: c868 003c 2471 973c 14f0 efbc 74e7 c2bc
00000200: ac7d d1bc a09a 5b3d 6a4a 113d 48cb 36bc
00000210: b69e 213d a451 973c 745b 81bc b87f f8bc
00000220: 50a5 febb 6ae9 12bd 3472 b0bc 3ca8 623d
00000230: c87b 043c b0a8 81bb a0a3 25bb b0ae 583d
00000240: 78fb 713c 3ef1 4bbd 3015 7a3d 68a9 523d
00000250: b89f bebc ac55 4abd 4c02 c23c d831 56bc
00000260: 26eb 31bd 0cc5 85bc 4817 4c3d c496 203d
00000270: b8cc 9c3c 284b 513c 70c5 b2bc 7874 50bc
00000280: 40fe 1f3b 4437 a23c 38fc 2fbc 58c6 13bd
00000290: 1edb 56bd 186f 5c3c 8a91 443d e2a5 38bd
000002a0: 709f 5f3d 78f6 43bc d46c 413d 44e1 f13c
000002b0: 2c1f 223d 4881 a7bc 68c7 393d 1081 d8bb
000002c0: aa63 733d 9820 aebc e064 0ebb 6691 02bd
000002d0: b2f1 30bd 40fa 013b 78fe b63c cad8 493d
000002e0: de3e 79bd 489a 603c 0046 eb3b 1cd0 cdbc
000002f0: f070 ea3c d8f4 04bd 303d a2bb 5cad 88bc
00000300: f81f 4abc 70bc b9bb 1447 803c ca9f 39bd
00000310: 2c52 11bd 0a91 04bd 3869 af3c f8b9 b03c
00000320: 041e 48bd 08b3 fa3c 28e8 9a3c e09f 88bb
00000330: b8c6 4dbc 846b fd3c fcc3 34bd a8c6 d4bc
00000340: f06a 11bd 70ec 00bc 6c00 b9bc be24 303d
00000350: b8c6 39bc 30ed 6cbc a8a4 5cbd 94a5 6dbd
00000360: 64dd 81bc 7482 743d 80c8 5a3b 18c0 dc3c
00000370: 5641 63bd 58de dfbc 527d 3ebd 2cb4 39bd
00000380: ec52 1cbd 68db b93c bc79 a53c 64ac 47bd
00000390: 08ff 59bc a83b f03c 40b4 dd3b 0afb 373d
000003a0: 3c88 733d f464 89bc 1034 adbb 1efd 2e3d
000003b0: 202e df3c 1c79 f43c 8af4 1c3d 0c53 a5bc
000003c0: 3830 3f3d dcaa 4d3d 26c0 17bd 7eda 74bd
000003d0: 00f2 993a cae4 1e3d a8ed 243d e88e dcbc
000003e0: 36e3 4bbd 68f3 babc 803f 41bd cc2b 00bd
000003f0: 4073 e6bc 60c1 97bc 3822 4d3c 9024 84bb
-0.061885513 -0.001293011 0.051081307 0.020180687 -0.04395306 0.03197363 -0.030710205 -0.018741183
0.045592636 0.052257605 -0.01629708 -0.040472776 -0.0145021975 0.03000804 -0.018392414 0.036969483
0.027239263 -0.051175117 -0.011618644 0.05239153 -0.0039801076 0.028406322 0.052642696 -0.031590104
0.036819905 0.018460117 0.05422751 -0.0016173944 -0.011250958 -0.018905915 0.009316623 0.023101114
-0.007503897 -0.027618706 0.036951534 0.015289053 -0.0012613982 0.037365496 -0.05558481 -0.010138147
-0.011198401 -0.037505277 -0.009621888 0.03134381 -0.030601233 -0.044389732 0.0047516003 -0.038563423
-0.038636357 -0.0543228 -0.02159021 -0.024677992 -0.03575106 0.037408367 0.039535046 -0.0322219
0.027375013 0.020086773 -0.05772736 0.03540808 0.026766032 0.021123119 0.054883346 -0.033939213
-0.02034162 0.02998703 0.06036953 0.042418286 0.061561838 0.05424878 0.055720836 0.014422916
-0.01692655 0.0026278645 -0.0453005 0.024397485 0.014763564 0.038047276 0.05370888 -0.012686357
-0.015965693 0.032814823 -0.005929582 0.025189675 0.051058613 0.058147967 -0.0444149 0.008126974
-0.038598813 0.0055400133 0.0042643473 0.05491014 0.016250484 -0.042353965 -0.028230056 -0.022458673
-0.049153753 -0.050384782 0.017241694 0.0012043417 -0.006258175 0.03254889 -0.034177206 0.022593036
0.014763862 0.00964807 -0.043456994 -0.049338266 0.017890044 0.020451665 0.040648296 0.041277476
-0.043321542 -0.013127595 -0.004235849 0.02652108 -0.022861369 -0.04722862 0.0077704415 0.011706971
0.0069866925 0.038605697 0.014728643 -0.058813177 0.007837482 0.018486567 -0.029289283 -0.023792006
-0.02557262 0.05361426 0.035471357 -0.011156864 0.039458 0.018471546 -0.015790679 -0.030334339
-0.0077711716 -0.035867132 -0.021538831 0.055336222 0.008086152 -0.0039568767 -0.002527453 0.05290097
0.0147694275 -0.049790613 0.061055362 0.05143109 -0.02326952 -0.04939811 0.023682736 -0.013073407
-0.043437146 -0.01632931 0.04982689 0.03920628 0.019140586 0.012774266 -0.021822661 -0.012723081
0.002441302 0.019801743 -0.010741286 -0.036077827 -0.05245506 0.013454221 0.04799036 -0.045080073
0.05459541 -0.011960618 0.047222927 0.02952636 0.03958051 -0.020447388 0.045356184 -0.0066071823
0.05942122 -0.021255776 -0.0021727607 -0.031876944 -0.04319925 0.0019832999 0.022338137 0.04927901
-0.06085097 0.0137086585 0.0071799755 -0.025123648 0.028618306 -0.032460064 -0.004951142 -0.016684227
-0.0123367235 -0.0056682155 0.015658893 -0.045318402 -0.035478756 -0.032364883 0.021412477 0.021573052
-0.04885675 0.030602947 0.018909529 -0.004169449 -0.012559585 0.030935057 -0.044132218 -0.025973633
-0.035502374 -0.007868871 -0.022583209 0.04300379 -0.011338882 -0.014460847 -0.053867966 -0.058019236
-0.015852638 0.059694722 0.0033383667 0.026947066 -0.05548223 -0.027327701 -0.046506234 -0.04533784
-0.038165018 0.022687629 0.020199649 -0.04874839 -0.013305433 0.029325321 0.0067658722 0.044917144
0.059456095 -0.016771771 -0.0052857473 0.04272186 0.027243674 0.029842906 0.038319148 -0.020181201
0.046676844 0.050211772 -0.03704848 -0.059778683 0.0011745095 0.03879241 0.04026571 -0.026923612
-0.049777232 -0.022821143 -0.0471797 -0.031291768 -0.028131127 -0.018524826 0.012520365 -0.004032679

model.2.bias f4 [128]
00000000: fcb0 db3c 60e5 4fbc d07e 1ebd 3640 38bd
00000010: 126a 6d3d 5038 1b3d 8ce0 143d d8d5 72bd
00000020: d438 693d c87b babc d6b5 6fbd b485 963c
00000030: 6aa1 233d 4834 2b3c 6c82 943c 8cdd 523d
00000040: d4c1 573d d8d5 393d 80fd 41ba 2490 273d
00000050: 78ac b0bc e842 70bd 08d1 293c 2470 3a3d
00000060: 6e03 7b3d 78d7 e5bc 906a 153c 7e8e 6cbd
00000070: 5079 f93c a8db 7bbd 40b3 1cbd f25b 2dbd
00000080: 741e 57bd a8a2 9fbc 00e4 d23c 00de 5e3b
00000090: a8bb 6a3d 00ff 97bc c067 aabc 8883 95bc
000000a0: 085b 523c 2c0e 74bd 0659 123d e06b 24bb
000000b0: 4818 2ebc ec59 c2bc d8b2 5a3c 20b3 843c
000000c0: 74a0 883c 500e 85bb e0f9 a13c ec35 343d
000000d0: 907d 4ebc 34cb 543d 3cb5 2a3d c04c 5dbd
000000e0: 40b6 c8bb 782b 003d 543a 27bd b863 77bd
000000f0: 2071 b1bc be09 1bbd 5c0a 82bc 5a94 0abd
00000100: e0c7 1d3d ec12 8abc 9c25 40bd c0c9 f9ba
00000110: 80bc b13a e8db 793d 2a26 7e3d 1a83 1fbd
00000120: e8d4 153c 56e6 213d f81c 763c c2c0 12bd
00000130: 3c5c 0fbd f8a1 ffbc 9028 a7bc fcaf 563d
00000140: 4423 33bd 7063 e53c 8078 0a3d e06e f23c
00000150: a44e 18bd 4c75 90bc b41e b1bc 8e7f 443d
00000160: 28c1 b5bc 9c33 4e3d 782a 413d 502c 05bc
00000170: 40da b93c 7c6b a5bc c838 123c d4d4 c3bc
00000180: e082 55bd c00f 313d 00a4 07bb 5c16 f03c
00000190: d858 223c 00ef 133b 3657 1e3d 0073 c4ba
000001a0: 5ced 2a3d 607f 193d 9030 e6bb 80e5 3cbd
000001b0: 40fa b83a 54d5 cb3c e011 b93b daa1 0b3d
000001c0: c043 5d3b 7696 3c3d 4438 c03c 8420 c3bc
000001d0: 7e37 713d 982a 9fbc 60e1 22bd a0f6 4f3b
000001e0: 2440 6bbd b6bf 113d 2c7b ecbc 3c8b 92bc
000001f0: b0dd 2e3d da7d 57bd 8074 d3bb ca01 393d
0.026817791 -0.012688965 -0.038695157 -0.04498311 0.057962485 0.0378955 0.036346957 -0.05928597
0.05693896 -0.022764102 -0.05852302 0.018374301 0.03994886 0.010449477 0.018128596 0.051480815
0.052675083 0.045369953 -0.000740014 0.040908948 -0.021566615 -0.058657557 0.010364778 0.045517102
0.061282568 -0.028056845 0.009119645 -0.05775308 0.030453354 -0.061488777 -0.038256884 -0.042324014
-0.052519277 -0.01948674 0.025743484 0.0034006834 0.05730787 -0.01855421 -0.020801425 -0.018251196
0.012839086 -0.059583828 0.03572943 -0.0025088713 -0.010625906 -0.023724519 0.013348304 0.016198695
0.016678073 -0.004060544 0.01977247 0.043996736 -0.012603179 0.051951602 0.041676745 -0.054028273
-0.0061252415 0.031291455 -0.04082711 -0.060397834 -0.021660388 -0.037851088 -0.01587408 -0.033832885
0.038520694 -0.016854726 -0.046910867 -0.0019057319 0.0013560206 0.061000735 0.062048115 -0.038943388
0.009144999 0.039526306 0.015021555 -0.03582836 -0.03500007 -0.031205162 -0.020405084 0.052413926
-0.043734804 0.028001517 0.033806324 0.029593885 -0.037184373 -0.017634057 -0.021621086 0.047973208
-0.02218683 0.050342187 0.047159642 -0.008128241 0.022687078 -0.020192854 0.0089246705 -0.023905195
-0.052126765 0.04322791 -0.0020697117 0.029307537 0.009908877 0.0022572875 0.03865739 -0.0014987886
0.04173027 0.03747499 -0.007024832 -0.046117306 0.0014112666 0.024881996 0.005647883 0.0340899
0.0033762306 0.04604193 0.02346433 -0.023819216 0.058890812 -0.01942949 -0.039765716 0.0031732693
-0.057434216 0.03558322 -0.028867327 -0.017888658 0.042691886 -0.052610256 -0.006453097 0.04516772

model.4.weight f4 [64, 128]
00000000: f668 883d f185 4e3d e32d 43bc 5c04 3a3d
00000010: 928b 933d 8cbc 0cbc 1e23 9bbd 8514 87bd
00000020: 87dc a2bd da50 983c fe34 303d a182 803d
00000030: 21ee 613d 0509 ad3d 96d6 81bd 0716 073c
00000040: 56ba 583c a6c2 e0bc 1def ac3c e72d 5ebb
00000050: 0085 14bc ac31 70bd d127 03bd f5b6 08ba
00000060: eef9 8c3d 555b 73bd 24f1 93bd c7ee 3cbd
00000070: a96e b43d 422a 073d 9adf e3bb 5c3a a23d
00000080: b91d 88bd 0c63 893d a516 e03c 4094 15bd
00000090: efcf 723d d6e4 6cbb 9761 9c3d 63ba fdbb
000000a0: acb7 96bd 6641 833d 045e 993d 7764 333a
000000b0: 36e6 893d 8d69 7e3d 2edd 1abb ca2e 9ebc
000000c0: 9527 29bd 4a77 9ebc 525c a2bd 27f7 62bd
000000d0: ac19 e03c b55e 87bc 647b 35bb 28fc f7bc
000000e0: f5ba d8bc c111 353d fdc0 80bc d53a 2f3d
000000f0: 0762 8ebb effa 2d3d ec1e 843d f467 98bd
00000100: f38a 9fbc 9e7e 4abd 141b 463d fabb ab3d
00000110: 58d2 8d3d 53a9 9dbc 2cf0 afbd 699f 80bd
00000120: 9741 efb9 f3cc 9fbd fd7d edbc fdbf 7b3d
00000130: 9cdc 473c 0db4 0ebd 844f 72bd a62f ae3d
00000140: 194a 343c 0b59 95bc ecea 853c 0371 9a3c
00000150: 6cd3 af3d ebd6 9b3c fbe2 8a3d 0707 7cbc
00000160: 4509 9f3d 6443 a33d 854c 9cbc 4499 203c
00000170: a5a4 4ebd 3b0d 6f3d 0dd9 26bc bb66 243d
00000180: c11c 8f3d e67e 8e3d 6f54 13bd 666f 573d
00000190: daef b03d d93e b1bd 14cb 943d 8f2c 91bb
000001a0: 0a42 52bd 399c b03d 64ca 493d 156a 933d
000001b0: 8dd7 8fbd 92a0 ae3c d881 00bd 3378 d4bc
000001c0: 8d06 4ebd c0c5 ac3c 040a a83d eb1f 743d
000001d0: c1c9 903d 657f 083d 7100 203d 59c6 363d
000001e0: 67ac ca3b f7b8 39bd ddcd 8ebc fbb1 1e3d
000001f0: 1dd7 87bd 6b25 a63d 453b 4d3d 61d9 0dbd
00000200: 6c75 703d 501e e43c ad0f 1e3d 613a 093d
00000210: 2186 37bd 0d01 7ebd b60e 8b3d 7197 223d
00000220: 5e81 593d 5495 f9bc 5192 22bc bb84 323d
00000230: d133 61bd 7fd5 c7bb 92e4 d3bc a660 2bbd
00000240: 4371 88bc 4b40 543c 30c3 38bd 66cc 82bd
00000250: db18 f53b cf65 3c3c d567 b43d 1663 efbb
00000260: 13c1 adbd ea4e 1dbd d420 9ebd 6981 a33d
00000270: c769 973d ed62 4fbd aa6c 97bd d021 efbc
00000280: fe4b e7bc 433c 9fbb fa48 a2bd fc3b ed38
00000290: e607 9dbd 8dcc 6e3d d462 37bd 0486 ecbc
000002a0: 8cfe 913c 1a1e 8a3d ba58 8cbd 0d34 80bc
000002b0: 608f 973d f9ef 5f3b ef63 63bd 97a9 7bbd
000002c0: 2cc9 a4bc 60d5 b03c c04c 273b 9a39 a5bd
000002d0: 1a43 d83b 93a0 a9bd 67c9 993d e75a a9bc
000002e0: 831b a4bb c76f c83c a9d2 9a3c 3945 413d
000002f0: e062 2ebd f5f8 f23c 1346 893d 0cbe 3d3d
00000300: 673f f7bc a630 a6bd dc9f 823d 492f 4fbd
00000310: abe4 25bd 69e9 83bd 8018 60bc da33 fa3c
00000320: 2e7c 9a3d 08ba d3bc 9875 c7bb d4eb abbb
00000330: adf7 153d efc5 c43b d0b3 5b3d 8f04 95bd
00000340: 1c71 a93d d5b9 833b 22b9 83bd 46db 8b3d
00000350: d292 0e3c 87a1 7dbd 1171 97bd b6fc 29bd
00000360: a8c3 46bd 684a 9f3b 1d75 9bbd 8c67 483d
00000370: 7d76 adbd f373 27bd 75be 653d 1c8d 59bd
00000380: 9e34 5e3a af65 a3bd 5742 1bbd 81ef 433c
00000390: b877 b1bc bd75 a7bd ead9 aebc 9948 7bbd
000003a0: 8065 333d d199 9c3d 815e 143c efc1 afbd
000003b0: ebca 463d ef4f 3cbc e7b0 9e3d 463d 703d
000003c0: 8243 82ba 94c3 98bc 527d 163d 90f0 5abd
000003d0: a16e 3b3d d590 99bd 64a2 a2bd fb0d 0a3d
000003e0: 3bd7 453d 394f 32bd f649 b13d 2268 503d
000003f0: d519 823c 9490 143d 9d08 643c c23a 923d
0.06660645 0.050420705 -0.011912796 0.045414314 0.07204355 -0.008589875 -0.075750574 -0.06595711
-0.079522185 0.01859324 0.043019287 0.062749155 0.055158738 0.08448986 -0.06339757 0.008244998
0.01322802 -0.027436566 0.021110112 -0.0033901872 -0.009064913 -0.05864112 -0.032020394 -0.0005215251
0.06883608 -0.059413273 -0.07223728 -0.046126153 0.08810169 0.032999285 -0.0069541456 0.079212874
-0.06646294 0.06708345 0.027354548 -0.036518335 0.059280332 -0.003614714 0.07635801 -0.0077431663
-0.073592514 0.06408958 0.07488635 0.00068432785 0.067333624 0.06211238 -0.0023630369 -0.01930942
-0.041297514 -0.01934399 -0.07927765 -0.055411484 0.027355991 -0.016524652 -0.0027691955 -0.030271605
-0.026456336 0.044206385 -0.015717024 0.042780716 -0.004345182 0.042475637 0.064512104 -0.074417025
-0.019475436 -0.049437158 0.048365667 0.08385463 0.069248855 -0.01924578 -0.08590731 -0.06280405
-0.000456345 -0.07802763 -0.02899074 0.06146239 0.0121985935 -0.03483968 -0.059157863 0.08505182
0.011003994 -0.018230936 0.016347371 0.018852716 0.085852474 0.01902338 0.06781574 -0.015382535
0.0776544 0.07971838 -0.019079456 0.009802166 -0.050449986 0.058362227 -0.010183585 0.040137034
0.06987906 0.06957798 -0.035969194 0.052596472 0.08639498 -0.08654565 0.072652966 -0.0044303606
-0.05133251 0.08623547 0.04926528 0.07197968 -0.07023535 0.0213168 -0.03137383 -0.025936222
-0.050299216 0.021090388 0.08205035 0.05960075 0.070697315 0.033324618 0.03906292 0.044622753
0.0061851027 -0.04534241 -0.017432148 0.038743954 -0.066328265 0.08112606 0.050105352 -0.034631137
0.058705732 0.027846485 0.03858917 0.03350294 -0.04480565 -0.06201272 0.06789915 0.039695207
0.05310189 -0.030466713 -0.00992258 0.043583613 -0.054981057 -0.0060984488 -0.025865827 -0.041840218
-0.01665557 0.012954782 -0.04510802 -0.06386642 0.0074797696 0.011498882 0.08808867 -0.007305513
-0.084840916 -0.038405336 -0.07721105 0.079836674 0.07393222 -0.050631452 -0.07393773 -0.029190928
-0.028234478 -0.0048594787 -0.079240754 0.000113122136 -0.07667522 0.058300544 -0.044771984 -0.028872497
0.017821573 0.06744023 -0.06852861 -0.01564982 0.074003935 0.0034170134 -0.055515226 -0.06144103
-0.020115457 0.02158612 0.0025527924 -0.08067627 0.006599796 -0.0828258 0.075091176 -0.020673228
-0.0050081625 0.024467362 0.018899279 0.047185156 -0.042574763 0.029659728 0.06702819 0.04632382
-0.0301816 -0.08114748 0.06378147 -0.050582204 -0.040501278 -0.06441004 -0.013677716 0.030542303
0.07543217 -0.025845543 -0.0060870163 -0.0052466188 0.036613155 0.006005041 0.05363828 -0.0727626
0.08273527 0.0040199556 -0.06431796 0.068289325 0.008701997 -0.061921623 -0.073946126 -0.04150077
-0.048526436 0.004861165 -0.07590697 0.048926875 -0.084698655 -0.040882062 0.056089837 -0.053113088
0.00084764685 -0.07978379 -0.037905063 0.011958958 -0.021663532 -0.08176754 -0.021344144 -0.06134853
0.04379797 0.07646526 0.009055735 -0.08581912 0.04853336 -0.011493667 0.07748585 0.058652185
-0.0009938332 -0.018647946 0.03674061 -0.053452075 0.0457598 -0.07498328 -0.0794113 0.03370474
0.048300963 -0.043532584 0.08656685 0.05088056 0.015881458 0.036270693 0.013918069 0.071401134

model.4.bias f4 [64]
00000000: e7b6 8b3d 3faa 2d3d 9fca ae3c a258 823c
00000010: 4307 713d db00 8cbd 00ac a33d 6bf5 9a3d
00000020: 5b1e a6bd d585 7e3d 9e2f 3ebd c2c8 013d
00000030: 6edd 103d 3695 91bc 208d 26bb 9bf8 263a
00000040: 21f0 503d 41dc bbbc 1ba5 a33d 0d28 c83c
00000050: f29b 14bd 88d6 543d 3299 623d 2104 573d
00000060: ba68 013d ca33 6dbd ed14 313c cc44 6ebb
00000070: ea87 a83d c934 963d ffc1 b23d 1e1c 7fbc
00000080: 56b4 a9bd 73db 653d f16f e8bc 7076 923d
00000090: 55fa 643d f395 863d cd52 ab3d 2095 883d
000000a0: 623b 873d c4de 34bc 5576 803d acbe 7d3c
000000b0: dab7 1b39 43ce 4f3d 9d87 863d ce5c c23b
000000c0: 9241 9c3d a102 85bd 7757 3abd d719 9a3b
000000d0: 1c34 b03a e601 53bd 92c5 d23c 2865 143d
000000e0: 4df8 4b3d 50d3 533c ec70 0abd 6dd5 bbbc
000000f0: 3db7 853d 46f0 4c3c f3a4 80bd 149d bb3c
0.06821995 0.042398687 0.021336852 0.015911404 0.058844816 -0.06836101 0.07991791 0.07566341
-0.081112586 0.06213935 -0.04643213 0.0316856 0.03536742 -0.017771345 -0.0025413707 0.00063694426
0.051010255 -0.022932174 0.07990476 0.02443316 -0.036281534 0.051962405 0.05532188 0.052494172
0.031594016 -0.057910718 0.010808212 -0.0036356924 0.082290486 0.07334287 0.08728408 -0.0155706685
-0.082863495 0.056117486 -0.02837369 0.071514964 0.055902798 0.06571569 0.08365402 0.06669068
0.06603123 -0.01103944 0.0627257 0.015487354 0.00014850442 0.050733816 0.06568835 0.0059314733
0.07629694 -0.06494642 -0.04549357 0.0047027874 0.0013443264 -0.051515482 0.025728974 0.036229283
0.049797345 0.012928799 -0.033799097 -0.022928918 0.065290906 0.0125084575 -0.062814616 0.02290205

model.6.weight f4 [15, 64]
00000000: e8c2 923c 943c 4fbd c04d 10bd 2cb8 bdbd
00000010: 760e 8abd d0b5 693d 0608 c13d 1674 f8bd
00000020: 76ad e5bd b04c d53c bcfb 01bd d0ed 27bc
00000030: 5ef5 9b3d e898 c3bc 6077 90bd 80f6 e7ba
00000040: a086 273c 506e ccbd 4469 b0bd 40a0 b5bb
00000050: c048 5fbd fa48 e13d a0e2 d0bc 6a9b 98bd
00000060: c8ec cb3c c4be 75bd 7e2d aebd 6e5f b9bd
00000070: bac2 cbbd 5044 7abc e09f 143c 38dd c6bd
00000080: 44fc 0fbd b84a bc3d 00ae af3a 88b1 fd3d
00000090: ea61 dc3d b813 023d 2021 8fbc f694 b43d
000000a0: e8cd 9e3c 92f8 9f3d 2222 dabd 943f d13d
000000b0: dc92 1fbd 9c68 433d 5e10 cbbd a047 d53c
000000c0: 847e 24bd a8d0 cfbc d0ee 133c a2af 97bd
000000d0: 808a 9dba a0c7 42bc 9e79 e0bd 2842 74bd
000000e0: 74e3 8dbd e0f4 c03b fc30 68bd 0493 efbd
000000f0: c041 3abb d6d4 dcbd b86f c43d 2073 c5bb
00000100: b85a 2bbd 9a97 c6bd 9e85 adbd a4d1 ab3d
00000110: 048b 3a3d a067 18bd 8ac5 febd 4007 89bd
00000120: 1029 b0bd c084 d5bc 708a bb3d aeb2 a13d
00000130: 801a ab3a e07a af3c 2291 9bbd d43b a1bd
00000140: b4e5 94bd 609e 90bb 7c3b 14bd 34e8 fe3d
00000150: 68e3 58bd 40e0 be3b ecd8 ebbd fa40 f13d
00000160: 748c 5bbd 803c 8a3d 98c2 8ebc 6476 0b3d
00000170: 18e1 0dbd d878 f8bc 84a4 333d 142d d8bd
00000180: 00af a4ba 90f7 40bd c0d7 f1bc 9a9d efbd
00000190: 48fb 503d cc4b f3bd 60f1 6cbc 943c 86bd
000001a0: e0a6 fc3b 00de f53d a2ea 8abd 7e74 fb3d
000001b0: 0045 913a 5028 043d 1460 45bd 88fe 79bd
000001c0: 6ccd 993d 304d 273c 90e8 a7bc f8a6 c2bc
000001d0: c4c5 4d3d c477 dcbd 58ab adbc 4084 9ebc
000001e0: 0628 b0bd 94b5 ac3d b814 8cbc 7803 d43d
000001f0: c200 e6bd 202c d8bc 0832 efbc c63a bfbd
00000200: fa00 f43d aac9 f7bd d4cb f6bd 00c2 af3a
00000210: 1c7e 043d 88b5 e73c 304e cfbd 3450 5abd
00000220: 9479 6b3d cefa d7bd 607a e53c ec9f dc3d
00000230: a817 49bd ac38 ea3d 0027 2d3a 2833 43bd
00000240: d0ef 51bc b435 d3bd 1c7c ba3d 6888 e63d
00000250: 4020 333d 585f f53d 24a5 673d 6800 abbd
00000260: 68c2 abbd 842b 8d3d 7c85 8ebd ba81 9d3d
00000270: ee38 d03d a0b2 6d3d 50b0 1cbc 4866 f2bd
00000280: 80ee 4a3c d6e4 dc3d 704c 14bc 30b2 313d
00000290: 0651 aabd 424d d0bd a8a1 30bd c847 3ebd
000002a0: 3842 f33d 1c87 c33d a661 c9bd 4c1a 873d
000002b0: a2fb 873d 9829 c5bc 6009 9c3b 7c6e 0c3d
000002c0: 0240 b13d a0da f7bc 6865 d9bd 3000 f03c
000002d0: 0020 5c3a 10bb 79bd 2430 adbd d8cd 94bd
000002e0: 10ea 233d da3d f43d 3087 0d3d f6b8 9d3d
000002f0: 2616 a0bd bcbc 7d3d 94de 333d 18ca c83d
00000300: 849f 5b3d ec1f bcbd 980a 12bd 808a e3bc
00000310: 2a1f 8cbd d8d1 433d 887b 483d ec93 33bd
00000320: a4e3 8b3d fe67 fdbd e0ff c83d c09a 94bc
00000330: 481c d1bd 8c76 693d 1c2a 98bd 10fe b2bd
00000340: 3cc7 a0bd 3ad8 c73d b4af ea3d 34f8 a8bd
00000350: 0800 4d3d 240f 593d 487a dbbc 163d c23d
00000360: ac62 5d3d 04bb 70bd e884 57bd f61e ee3d
00000370: 62cf 98bd ecca 303d 0028 76ba b8d3 423d
00000380: 9c88 2abd 803d 8fba 14ce 383d 6837 d43d
00000390: 008a a339 4835 a9bc de96 9e3d 7c35 373d
000003a0: 46f0 c13d 7298 a73d fad6 a93d 9802 c73d
000003b0: 10ba 08bc 8a98 d03d e8cf 02bd 7e2d c43d
000003c0: 2638 b23d 6460 2ebd 788e fabd fc6a 9ebd
000003d0: 60ef b4bd 0030 ebbb fa82 d53d bc92 a63d
000003e0: 241f 8c3d 4896 d9bd 18b2 ca3d 98c4 74bd
000003f0: ee47 803d 9eed e1bd e056 053c 8468 1dbd
0.017915204 -0.05059488 -0.0352304 -0.092636436 -0.067410395 0.057058156 0.094253585 -0.12131517
-0.11214726 0.026037544 -0.031734213 -0.01024957 0.076151595 -0.023876622 -0.07054019 -0.0017697364
0.010224968 -0.09981978 -0.08613828 -0.005542785 -0.05451274 0.11000247 -0.025498688 -0.07451518
0.02489318 -0.05999638 -0.08504771 -0.09051405 -0.099492505 -0.015275076 0.00907132 -0.09710163
-0.03515269 0.09193939 0.0013403296 0.12387377 0.10760863 0.031757087 -0.01747185 0.088174745
0.019385293 0.07811083 -0.106510416 0.10217205 -0.038958415 0.047707185 -0.09915231 0.02603513
-0.040159717 -0.02536805 0.009029105 -0.07406546 -0.0012019426 -0.011888415 -0.10960697 -0.059633404
-0.06928149 0.0058885664 -0.05668734 -0.11697963 -0.0028420538 -0.10782783 0.09591621 -0.006025687
-0.041834563 -0.096968845 -0.08472751 0.08389595 0.045542732 -0.0372082 -0.12440021 -0.06690836
-0.08601582 -0.026064277 0.09157264 0.078954086 0.0013054162 0.021420896 -0.07596041 -0.078727394
-0.07270375 -0.004413411 -0.03618954 0.12446633 -0.052951247 0.0058250725 -0.11515984 0.117799714
-0.053600743 0.06749821 -0.017426774 0.034048453 -0.034638494 -0.03033106 0.043858066 -0.10555473
-0.0012564361 -0.047111094 -0.029521823 -0.11699982 0.05102089 -0.118796915 -0.014461845 -0.06554523
0.0077103227 0.12005234 -0.06783034 0.122780785 0.0011083186 0.032265007 -0.04818733 -0.061033756
0.07509884 0.010211274 -0.020496637 -0.023761258 0.050237432 -0.10765031 -0.021199867 -0.019350171
-0.08601384 0.08433071 -0.017099723 0.10352224 -0.11230613 -0.026388228 -0.029198661 -0.09337382
0.11914249 -0.12099011 -0.12050596 0.0013409257 0.03234683 0.028284803 -0.10122335 -0.053299144
0.057488993 -0.10545884 0.028012455 0.1077269 -0.049094826 0.114365906 0.0006605238 -0.04765621
-0.012813523 -0.103129774 0.09105703 0.11256486 0.043731928 0.11981076 0.056553975 -0.08349687
-0.083866894 0.068930656 -0.06959054 0.07690759 0.101671085 0.05803168 -0.009563521 -0.11835915
0.012385964 0.107858345 -0.009051427 0.043382823 -0.08316235 -0.10170986 -0.043122917 -0.046455175
0.118778646 0.095472544 -0.09833078 0.065968126 0.06639792 -0.024067685 0.00476186 0.034285054
0.08654787 -0.030255616 -0.10615045 0.029296964 0.00083971024 -0.060969412 -0.08456448 -0.07265824
0.04001814 0.1192586 0.034552753 0.07701294 -0.078167245 0.06194757 0.04391344 0.09804171
0.053618923 -0.09185776 -0.035654634 -0.027776003 -0.068418816 0.047807544 0.048945934 -0.04384224
0.068305284 -0.123733506 0.09814429 -0.018140197 -0.10210472 0.05699782 -0.07429907 -0.08739865
-0.07850501 0.09758039 0.11459294 -0.08250466 0.050048858 0.052992955 -0.026791707 0.094843075
0.05404918 -0.058772102 -0.052616984 0.11626999 -0.0746143 0.04316227 -0.0009390116 0.047565192
-0.041634187 -0.0010928363 0.045118406 0.103621304 0.000311926 -0.02065529 0.077436194 0.04472874
0.09469657 0.081833735 0.08292957 0.097172916 -0.008345142 0.101853445 -0.031936556 0.095789894
0.08702116 -0.042572394 -0.12234205 -0.077352494 -0.0883472 -0.007177353 0.104253724 0.08133456
0.06841877 -0.10624367 0.0989725 -0.0597578 0.062637195 -0.1103165 0.008138388 -0.038429752

model.6.bias f4 [15]
00000000: a809 a3bd 4efa 863d b061 853c 40e7 6c3b
00000010: 0012 15bc d680 efbd d08d 203c 188d 54bd
00000020: dae1 933d 38c8 bcbd 548a c23d 10c8 9cbd
00000030: b28f 97bd a856 4dbd 484b 7d3d
-0.07960826 0.065907106 0.016281933 0.0036148578 -0.00909853 -0.116944954 0.009799436 -0.05189237
0.07220812 -0.09217876 0.0949904 -0.076553464 -0.074004546 -0.05013147 0.061839372
